perception_pkgs/tcp_link/model/transformer_eye.pth (torch, 228813 bytes, 77 tensors)

conv_eeg.weight f4 [28, 32, 5]
0	0x3b5bb3c0	0.0033523887
1	0xbc614b18	-0.013750814
2	0x3d0cf5ae	0.034413986
3	0x3c007048	0.00783927
4	0x3d37041a	0.044681646
5	0x3d9896df	0.074506514
6	0x3cd7b840	0.026332974
7	0xbd7ce326	-0.061740063
8	0x3d7b7912	0.06139476
9	0x3d0512b2	0.032488532
10	0xbd698858	-0.057014793
11	0x3cb79e6c	0.022414409
12	0x3c5fc900	0.013658762
13	0xbd06dde8	-0.03292647
14	0xbd586481	-0.052830223
15	0xbd299dab	-0.04141013
16	0x3c855938	0.016277894
17	0xbc8f8dcc	-0.017523669
18	0xbd492f34	-0.049117282
19	0xbcd509c0	-0.026005626
20	0x3d93a227	0.072086625
21	0xbc314380	-0.010819316
22	0x3c90e838	0.017688856
23	0x3d3b0de8	0.04566756
24	0xbd1ce0ba	-0.038300253
25	0xbd27c238	-0.040956706
26	0x3d91d41d	0.071205355
27	0xbd8480c7	-0.06469875
28	0xbc4c3d38	-0.012465768
29	0xbc892948	-0.016743317
30	0xbd316f82	-0.043319233
31	0x3d555536	0.052083217
32	0xbd01175a	-0.03151641
33	0xbc871c34	-0.01649294
34	0x3cbd4634	0.023104765
35	0x3cce24c4	0.025164016
36	0xbd84c9b4	-0.06483784
37	0x3d7244a6	0.0591475
38	0x3cedb7bc	0.029018275
39	0xbccf09e8	-0.025273278
40	0xbd90c3cb	-0.070685945
41	0xbd069e62	-0.03286589
42	0xbcf29c84	-0.029615648
43	0x3b9ea140	0.004841
44	0xbd8df988	-0.0693236
45	0x3c8005ec	0.015627824
46	0x3af5b5c0	0.0018746182
47	0xbd9a1ad9	-0.07524652
48	0xbb0a0580	-0.0021060407
49	0x3c03b0d0	0.008037761
50	0x3ba12110	0.0049172714
51	0xbd81d4d8	-0.06339425
52	0x3bdfc6b0	0.0068291053
53	0x3d9ca917	0.07649439
54	0x3d5714c6	0.052510045
55	0x3d444a92	0.04792268
56	0xbbcc59f0	-0.0062363073
57	0x3d8fcf49	0.070219584
58	0xbd7fba50	-0.06243354
59	0xbd1d91f7	-0.03846928
60	0xbd947934	-0.0724968
61	0x3d11474a	0.035468377
62	0xbd23fcef	-0.04003614
63	0x3d6507c6	0.055915616
64	0x3d3096b4	0.04311247
65	0xbd1fbf1e	-0.039000623
66	0xbcf6a1c8	-0.03010644
67	0x3c929cf4	0.017897107
68	0xbc90b314	-0.017663516
69	0xbd015ea4	-0.031584397
70	0x3d207bec	0.03918068
71	0x3d3faa9e	0.046793573
72	0x3ce7084c	0.028202198
73	0x3cb719a0	0.022351086
74	0x3ce55238	0.027993307
75	0xbcd84f70	-0.026405066
76	0x3d1c13ec	0.038104936
77	0x3cc0a20c	0.02351477
78	0xbc93cbbe	-0.018041488
79	0xbcd33bb8	-0.025785312
80	0x3d960c5d	0.07326577
81	0x3ce00e88	0.027350679
82	0x3d810475	0.06299678
83	0x3d3718f8	0.044701546
84	0x3d692dde	0.056928508
85	0xbc26fba8	-0.010191835
86	0xbd72f7a4	-0.0593182
87	0xbc3f8508	-0.011689432
88	0xbb407880	-0.0029368699
89	0xbd9ee658	-0.07758778
90	0xbd2e8992	-0.042611666
91	0xbc8e242c	-0.017351232
92	0xbc47b428	-0.012188949
93	0x3d87897b	0.06618019
94	0xbd0a6c60	-0.03379476
95	0xbd04ccc2	-0.032421835
96	0x3ba5b790	0.0050572827
97	0xbbb68ce0	-0.005570993
98	0x3d6bf936	0.057610713
99	0xbd63b612	-0.055593558
100	0xbd6f3b2e	-0.058406048
101	0x3beb7820	0.007185951
102	0x3d246b9a	0.04014168
103	0xbbc00720	-0.0058602244
104	0x3d3c92c2	0.046038397
105	0xbcee362c	-0.029078566
106	0x3d10f09a	0.035385706
107	0xbd6834fd	-0.05669116
108	0xbda0cc29	-0.078514405
109	0xbd131e3c	-0.035917506
110	0x3cf83af4	0.030301549
111	0x3d9afbbd	0.075675465
112	0xbce228ae	-0.027607288
113	0xbbd22500	-0.006413102
114	0xbd492da2	-0.049115784
115	0x3d83f97d	0.064440705
116	0xbd87f978	-0.06639379
117	0xbd767892	-0.06017358
118	0x3bcc1d90	0.00622911
119	0x3bf3f0b0	0.0074444637
120	0xbd4da90c	-0.050210044
121	0xbd6b95da	-0.057515956
122	0x3c26e6a0	0.010186821
123	0x3d747736	0.059684
124	0x3cb7cbf0	0.022436112
125	0x3ce0f61c	0.027461104
126	0x3d35a430	0.044346035
127	0x3b4c7840	0.0031199604
128	0x3d7f0b5e	0.0622667
129	0x3d36cb24	0.044627324
130	0x3cbbf43c	0.022943608
131	0x3cd15f54	0.025558151
132	0x3d96d229	0.073643036
133	0xbda0aaab	-0.07845052
134	0xbda0b5cc	-0.07847175
135	0x3d1c788a	0.038200893
136	0xbd8d63fe	-0.069038376
137	0x3d937e3f	0.07201814
138	0xbc85a1a4	-0.016312428
139	0xbd1407f9	-0.036140416
140	0xbcf777f6	-0.030208569
141	0xbd6d6886	-0.05796101
142	0xbcf48a08	-0.029850975
143	0x3c823190	0.015892774
144	0x3d8725c9	0.06599004
145	0x3d625dca	0.055265225
146	0x3d8d0f75	0.06887714
147	0xbd30da4f	-0.043176945
148	0x3d8dd2bb	0.06924959
149	0xbd160df2	-0.036634393
150	0x3d88b387	0.06674867
151	0xbd629ca5	-0.05532517
152	0x3d80898d	0.06276236
153	0xbd455a00	-0.048181534
154	0x3cacb8ac	0.021084152
155	0x3d903c59	0.070427604
156	0xbd718b6f	-0.058970865
157	0x3cd40154	0.02587954
158	0x3c9ea66c	0.019366466
159	0x3c43dc78	0.011954419
160	0x3cbd91cc	0.02314081
161	0xbd868431	-0.06568182
162	0x3bfb99d0	0.007678248
163	0xbd7c29f4	-0.061563447
164	0xbd1f6052	-0.038910218
165	0x3d46e58e	0.048558764
166	0x3d37b4c2	0.04485012
167	0xbd9d627f	-0.07684802
168	0xbd4e2280	-0.05032587
169	0xbcb94c7a	-0.022619475
170	0xbcc6d8e8	-0.02427335
171	0xbd980be4	-0.07424143
172	0x3c545f78	0.012962215
173	0x3cd4e7bc	0.025989406
174	0x3c7f78e8	0.015592791
175	0xbc3fde30	-0.0117106885
176	0x3d4d6316	0.050143324
177	0x3d4d99ea	0.050195612
178	0x3d20985c	0.0392078
179	0xbd17d282	-0.03706599
180	0x3d76d16e	0.06025832
181	0xbd7d8eea	-0.06190387
182	0xbd0c9343	-0.034320127
183	0xbd9490af	-0.07254159
184	0x3d84029f	0.064458124
185	0xbc68ca80	-0.014208436
186	0xbd2b4a1e	-0.04181873
187	0xbd92b270	-0.071629405
188	0x3cff58ac	0.031170212
189	0x3d50b832	0.050956912
190	0x3d267c4c	0.040645882
191	0xbadbda40	-0.0016773418
192	0xbd84a619	-0.06476993
193	0xbbba17b0	-0.0056790933
194	0x3bb259d0	0.0054428354
195	0x3d7110da	0.05885396
196	0x3c10b8f0	0.008833155
197	0xbb4916e0	-0.00306838
198	0xbd83d264	-0.06436613
199	0xbd9880ab	-0.074464165
200	0xbd917bb0	-0.0710367
201	0xbd03eb4a	-0.03220681
202	0xbd5ad80c	-0.053428695
203	0x3d34697a	0.044045903
204	0xbd2ebce8	-0.042660624
205	0x3d6158da	0.055016376
206	0xbd1a9b8d	-0.037746
207	0xbca5de22	-0.020247523
208	0xbd0693d2	-0.032855816
209	0xbcff35ec	-0.031153642
210	0xbd4471de	-0.047960155
211	0xbd48204c	-0.048858926
212	0xbd8fd4e2	-0.07023026
213	0xbcea5f38	-0.028609857
214	0xbd26657e	-0.040624134
215	0xbd89d299	-0.067296214
216	0x3d2ab772	0.041678853
217	0x3ad9ef00	0.0016627014
218	0xbd4e9b6d	-0.050441194
219	0xbd632f62	-0.05546511
220	0xbd20b3ff	-0.039234158
221	0x3cd4c598	0.025973126
222	0xbd2ffdb1	-0.04296655
223	0xbbad0b10	-0.00528086
224	0x3c775838	0.015096717
225	0xbd6b429e	-0.057436578
226	0xbc56db58	-0.013113819
227	0x3cb239ac	0.021756016
228	0x3d086ad2	0.033304997
229	0xbc41f160	-0.011837333
230	0xbbec3fb0	-0.0072097406
231	0x3d857295	0.065159954
232	0x3c8ab2f0	0.016931027
233	0x3d26a6c4	0.040686384
234	0xbbefd4c0	-0.007319063
235	0xbd6d7cba	-0.057980277
236	0x3c66c2f0	0.014084563
237	0x3d66f4b2	0.056385703
238	0x3c2a62b0	0.0103995055
239	0x3c8c0330	0.017091364
240	0xbb0a2620	-0.0021079853
241	0xbcbfeed6	-0.023429316
242	0xbd2ea913	-0.04264171
243	0xbd7213fe	-0.059101097
244	0x3d75b1be	0.05998396
245	0xbd084d04	-0.033276573
246	0x3cc75580	0.024332762
247	0xbd84c5e6	-0.06483059
248	0xbca22428	-0.019792631
249	0x3c649a08	0.01395274
250	0xbda0070d	-0.07813845
251	0x3d563ad2	0.05230219
252	0xbd828e34	-0.06374779
253	0xbba6a780	-0.0050858855
254	0x3b9e4210	0.0048296526
255	0xbccafce6	-0.024778794

conv_eeg.bias f4 [28]
0	0xbd0a393a	-0.03374598
1	0xbd02b75f	-0.031913158
2	0xbd85934f	-0.065222375
3	0xbc856458	-0.0162832
4	0xbae1ef00	-0.0017237365
5	0xbcf6568e	-0.03007057
6	0x3d4049ae	0.046945266
7	0x3d843635	0.06455652
8	0x3c40c520	0.011765748
9	0xbd8c4909	-0.06849868
10	0xbd00d93e	-0.03145718
11	0x3c8460a4	0.016159363
12	0x3c102f98	0.00880041
13	0x3c812af4	0.015767552
14	0xbd21dde0	-0.039518237
15	0xbcc90872	-0.02454016
16	0xbccd23ba	-0.02504145
17	0x3c928dd0	0.017889887
18	0xbd58a1c0	-0.05288863
19	0x3ca82fa8	0.020530537
20	0x3d7e33c6	0.062061094
21	0x3d5a2e42	0.05326677
22	0xbd121f11	-0.03567416
23	0xbc3f4450	-0.011674002
24	0xbc700470	-0.0146494955
25	0x3d804183	0.06262495
26	0xbd00be83	-0.031431686
27	0x3d8f98df	0.0701158

conv_eeg2.weight f4 [24, 28, 3]
0	0x3d063fca	0.032775678
1	0xbdcb999e	-0.099414095
2	0x3d582df6	0.052778207
3	0xbd5e74bf	-0.054310557
4	0x3d174212	0.036928244
5	0x3dc7064b	0.09717997
6	0xbd62be73	-0.055357408
7	0xbdae8313	-0.08521094
8	0x3d3fbe5e	0.046812408
9	0xbd226b2c	-0.03965299
10	0xbdd46206	-0.10370259
11	0x3bdfe880	0.006833136
12	0xbd88c2b2	-0.0667776
13	0xbcaef7a0	-0.021358311
14	0x3dd6bb5d	0.104849555
15	0x3d94759b	0.07248994
16	0xbdd7ffaf	-0.10546815
17	0x3dad8b7d	0.08473871
18	0xbc5bc0c0	-0.013412654
19	0xbc7af078	-0.015316121
20	0xbdcfe2fd	-0.101507165
21	0xbd7240ab	-0.059143703
22	0xbdda83b7	-0.10669654
23	0xbabe0700	-0.0014497936
24	0xbd1c477e	-0.038154118
25	0xbba51cb0	-0.00503882
26	0x3d99fbf5	0.0751876
27	0xbdc60b7a	-0.09670158
28	0x3d867af3	0.065664195
29	0xbd6d2861	-0.057899836
30	0x3db982b7	0.09058135
31	0xbdc9a7af	-0.09846436
32	0x3d74256a	0.059605993
33	0x3d1d3b8e	0.038386874
34	0xbcc4dfb8	-0.024032459
35	0xbdc692de	-0.096959814
36	0xbc7a82b0	-0.015289947
37	0x3d4f572a	0.050620236
38	0xbdc248e0	-0.09486556
39	0x3dd248b7	0.102677755
40	0xbd4668c0	-0.04843974
41	0xbb71c320	-0.0036889985
42	0x3dd3b71b	0.10337659
43	0x3d6fea1e	0.05857288
44	0x3d7ff096	0.0624853
45	0x3d6c9fba	0.057769515
46	0xbd2fa36e	-0.042880468
47	0xbdc4642b	-0.09589418
48	0x3dd2ca57	0.102924995
49	0x3db517d3	0.08842435
50	0x3d9580d1	0.072999604
51	0xbd14606c	-0.036224768
52	0x3d76762a	0.060171284
53	0xbd198cf0	-0.037487924
54	0xbc8c4f3c	-0.017127626
55	0x3baaecc0	0.005216211
56	0xbdad6f6b	-0.08468517
57	0xbd7f7fe5	-0.06237783
58	0xbc4aecc8	-0.012385555
59	0x3c752f10	0.014964834
60	0x3d6ebff2	0.058288522
61	0x3b8d2e50	0.0043084994
62	0xbdc4c89e	-0.09608577
63	0x3da5341f	0.08066582
64	0xbd83618e	-0.064150915
65	0x3dcfe687	0.101513915
66	0xbcc6c54c	-0.024264
67	0xbd07f240	-0.033190012
68	0x3c9595d4	0.01825992
69	0x399a3300	0.00029411167
70	0x3d6d1bce	0.057887845
71	0x3c555ba8	0.013022341
72	0xbcc480e0	-0.023987234
73	0xbdc1d493	-0.094643734
74	0xbd922178	-0.0713529
75	0x3db8178f	0.089888684
76	0xbcbaccc4	-0.022802718
77	0x3d49e52e	0.04929083
78	0xbdcaf29d	-0.09909556
79	0x3dc55435	0.09635202
80	0x3d99a18f	0.07501518
81	0x3dcf051f	0.10108399
82	0xbdcf406a	-0.10119708
83	0xbda8ba4f	-0.082386605
84	0x3bba0dc0	0.0056779087
85	0x3d96e5e9	0.07368071
86	0xbba07400	-0.004896641
87	0xbdcf35ed	-0.101177074
88	0x3d3613c2	0.044452436
89	0x3da54181	0.080691345
90	0x3d9f8455	0.07788912
91	0x3d5e1b16	0.05422505
92	0xbd93bca9	-0.072137184
93	0x3d77990e	0.0604487
94	0x3db5e21b	0.08881017
95	0xbc7194e8	-0.014744975
96	0x3d654506	0.05597403
97	0x3d343d72	0.04400391
98	0x3c990d14	0.018682994
99	0x3d36cdfe	0.044630043
100	0x39ef6b00	0.00045665354
101	0x3dc2665d	0.094921805
102	0xbb9ad600	-0.004725218
103	0x3d310ece	0.04322701
104	0xbd3f4d44	-0.046704546
105	0x3dc11df5	0.09429542
106	0xbd5a3427	-0.053272393
107	0x3dabe741	0.083937176
108	0xbd8ffac5	-0.07030252
109	0x3d7f761a	0.06236849
110	0x3dbab381	0.09116269
111	0x3bdc8d40	0.0067307055
112	0xbd20fd66	-0.03930416
113	0xbc145948	-0.009054489
114	0xbd41d7a3	-0.047324788
115	0xbdbecbd9	-0.093162246
116	0xbd2dff20	-0.042479634
117	0x3dc246f5	0.0948619
118	0x3d508ada	0.05091367
119	0xbcc9f678	-0.024653658
120	0x3d90dde1	0.0707357
121	0x3cc6478c	0.024204038
122	0xbdd54620	-0.10413766
123	0xbc46f048	-0.012142248
124	0x3c02c060	0.007980436
125	0x3d24cff6	0.04023739
126	0xbdb9fefd	-0.09081838
127	0xbdc07c5d	-0.093987204
128	0xb9e8d100	-0.00044406205
129	0x3d8e950b	0.069620214
130	0x3d7ca5a6	0.061681412
131	0x3d25a752	0.040442772
132	0x3da72fc3	0.08163407
133	0x3dc5b7cd	0.09654198
134	0x3dd53039	0.10409588
135	0x3dd8e483	0.1059046
136	0xbdddec7c	-0.108361214
137	0x3bec02a0	0.0072024614
138	0xbd3430be	-0.043991797
139	0x3da4f90b	0.08055314
140	0x3dc94ee5	0.09829501
141	0x3dbac5a5	0.09119729
142	0x3d8b69cb	0.06807288
143	0xbdda2f24	-0.106535226
144	0x3d21f206	0.039537452
145	0x3d94811d	0.07251189
146	0x3d406d56	0.04697927
147	0xbd90ac0d	-0.07064066
148	0x3c5783a8	0.013153948
149	0xbdcff60c	-0.101543516
150	0x3ccfef14	0.025382556
151	0x3ce2ca5c	0.027684383
152	0xbce6439c	-0.02810841
153	0xbd4b8a20	-0.049692273
154	0xbd968e59	-0.073513694
155	0xbd211f20	-0.039336324
156	0x3dd34569	0.10315973
157	0x3dc4ab49	0.096029826
158	0x3cae1084	0.02124811
159	0xbcb67d88	-0.022276655
160	0xbccdaf14	-0.025107898
161	0x3d85842f	0.06519353
162	0x3d7d2a86	0.06180813
163	0xbd7336d1	-0.05937845
164	0x3dab03bb	0.08350321
165	0xba597e00	-0.00082966685
166	0xbdb8d29c	-0.090245456
167	0x3d74cb2e	0.05976408
168	0x3dc7f327	0.097631745
169	0x3d8ce7cf	0.068801515
170	0x3d089046	0.033340715
171	0xbdba3ace	-0.09093247
172	0xbdbc3e4e	-0.09191571
173	0xbc60c698	-0.013719223
174	0x3dbc86cf	0.092054
175	0xbd233932	-0.039849468
176	0xbd8b0575	-0.0678815
177	0x3d1ba61e	0.03800022
178	0xbd82b92e	-0.063829765
179	0xbdb49ed3	-0.08819356
180	0x3d0fabfe	0.035076134
181	0xbd03fcea	-0.03222362
182	0x3b882320	0.004154578
183	0xbdc5661a	-0.09638615
184	0x3bc3c6e0	0.0059746355
185	0x3dd5df5b	0.10442992
186	0x3d85b8a9	0.06529362
187	0xbce8a4d8	-0.028398916
188	0x3d394336	0.045230113
189	0x3d91243d	0.0708699
190	0xbd946730	-0.07246244
191	0x3c3a8a70	0.011385545
192	0x3bde97e0	0.0067930073
193	0xbcc8696c	-0.024464332
194	0x3d86c8c1	0.065812595
195	0x3c233760	0.009961933
196	0x3c79b140	0.015240014
197	0x3d90115f	0.07034563
198	0xbba07d30	-0.004897736
199	0x3d8b7f5b	0.068114005
200	0x3d041432	0.032245822
201	0xbd9ae7fe	-0.0756378
202	0x3dcde249	0.10052926
203	0xbc413158	-0.01179155
204	0x3c9e46c4	0.019320853
205	0x3d5113e2	0.051044352
206	0x3ca6d34c	0.020364426
207	0x3dc48b25	0.09596852
208	0x3d313b5e	0.043269508
209	0xbda6cd96	-0.08144681
210	0xbd0c9f22	-0.03433145
211	0x3db73e4f	0.08947431
212	0xbcdd5c84	-0.027021654
213	0xbb0b5740	-0.0021261722
214	0xbd891c6e	-0.06694876
215	0x3dc6a4d7	0.096994095
216	0x3d65cd66	0.056104086
217	0x3d87a3af	0.06623017
218	0xbd8ccf2b	-0.06875452
219	0xbca95290	-0.020669252
220	0x3d92f43f	0.071754925
221	0xbd9e4478	-0.07727903
222	0xbd9e2381	-0.077216156
223	0x3d787062	0.06065405
224	0xbaec5cc0	-0.0018033013
225	0xbd223542	-0.03960157
226	0xbda03ba0	-0.078238726
227	0xba56c200	-0.00081923604
228	0x3db0e6a5	0.08637742
229	0x3cedd604	0.029032715
230	0xbd5bf194	-0.053697184
231	0xbdae35c4	-0.08506349
232	0xbd5ed298	-0.054400057
233	0xbcf7e0c8	-0.030258551
234	0xbda5bece	-0.08093034
235	0x3d502d52	0.05082447
236	0x3ddce36f	0.10785567
237	0xbd57a06d	-0.05264323
238	0x3cc28a2c	0.023747526
239	0x3d5c1bea	0.05373756
240	0x3d8f9c4b	0.070122324
241	0x3cb230d4	0.021751799
242	0x3d89a015	0.06719986
243	0x3d0f90ea	0.03505031
244	0x3d047f36	0.03234788
245	0x3d49151e	0.049092405
246	0xbd977ba7	-0.07396632
247	0xbc193720	-0.009351522
248	0xbd1bbb0c	-0.03802018
249	0xbdb7558c	-0.08951864
250	0xbdbfaee2	-0.09359528
251	0xbcf6cde0	-0.030127466
252	0xbdc7220f	-0.09723293
253	0xbca82f14	-0.020530261
254	0xbd5e20b5	-0.05423041
255	0xbd041a86	-0.032251857

conv_eeg2.bias f4 [24]
0	0xbd87bd8c	-0.0662795
1	0xbdbea70b	-0.09309205
2	0x3a50d400	0.0007966161
3	0xbd9dbc75	-0.07701961
4	0x3dd3d33b	0.103430234
5	0xbd8fa39e	-0.070136294
6	0x3d930d45	0.07180265
7	0xbcaf33a4	-0.021386929
8	0x3ae33e40	0.0017337278
9	0xbda1bb2f	-0.078970306
10	0xbc9bda78	-0.019025072
11	0x3ccc333c	0.024926774
12	0x3c079330	0.008274838
13	0x3d6cd5e2	0.057821162
14	0xbdc7bb97	-0.09752577
15	0x3d87dccb	0.0663391
16	0x3da3423d	0.07971618
17	0xbbc07b00	-0.0058740377
18	0xbdb0749e	-0.08615993
19	0x3dc70c59	0.09719152
20	0xbc632e48	-0.013866015
21	0xbdd812ff	-0.10550498
22	0x3dcdfc0b	0.10057839
23	0x3d977485	0.07395271

wave_time.weight f4 [30, 5]
0	0x3ee179fa	0.44038373
1	0x3ecf32e2	0.40468508
2	0x3e552f2c	0.20818776
3	0xbaa64900	-0.0012686551
4	0xbe0b392e	-0.13596031
5	0xbe92c997	-0.28669426
6	0x3e9fef38	0.31237197
7	0x3e55d7f4	0.20883161
8	0xbebb2c95	-0.3655745
9	0xbd7b0300	-0.061282158
10	0xbddbc4c8	-0.107308924
11	0xbec767c1	-0.38946345
12	0x3e8b5e6c	0.27220476
13	0x3e925be8	0.28585744
14	0xbdeeaf9c	-0.116545886
15	0xbda43a30	-0.08018911
16	0xbb92c500	-0.0044790506
17	0xbe98889e	-0.2979173
18	0xbe3d9878	-0.18515193
19	0x3ed51de0	0.41624355
20	0xbe9c2580	-0.3049736
21	0x3eb7df16	0.3591239
22	0x38b8b000	8.806586e-05
23	0x3dcb7db0	0.09936082
24	0xbe3b277a	-0.18276778
25	0xbe3da13e	-0.1851854
26	0x3ee07142	0.4383641
27	0xbe064f2e	-0.13116142
28	0x3ec65b54	0.38741553
29	0x3e943286	0.28944796
30	0xbed18dfd	-0.4092864
31	0x3eaf49c6	0.34235972
32	0x3eb63264	0.3558532
33	0xbed33809	-0.4125369
34	0xbed6fda2	-0.4199038
35	0xbeab0a99	-0.33406523
36	0xbe76e305	-0.24110039
37	0x3d02c368	0.031924635
38	0x3df53038	0.119720876
39	0xbcec0940	-0.028813004
40	0xbd3f4fb0	-0.046706855
41	0xbe6a2443	-0.22865395
42	0x3e2a29c4	0.16617495
43	0x3dbd7410	0.09250653
44	0x3eb7d154	0.35901892
45	0xbe5196d7	-0.20467697
46	0xbebb4e57	-0.36583206
47	0xbe6f0e6d	-0.23345347
48	0xbe1ff69c	-0.15621418
49	0x3d762310	0.060092032
50	0xbe14c3f0	-0.14527869
51	0xbec1a327	-0.37819788
52	0x3ed8636c	0.42263353
53	0x3ed72ad0	0.4202485
54	0x3e4d3410	0.20039392
55	0xba921b00	-0.0011146963
56	0x3d20b5e8	0.03923598
57	0x3e27da94	0.16391975
58	0x3e5a7978	0.21335399
59	0x3d924430	0.07141912
60	0xbe872eb6	-0.26402825
61	0xbebaaa38	-0.36457992
62	0x3ebc3f4e	0.36767048
63	0x3e6433c4	0.22285372
64	0x3e7587c4	0.23977572
65	0x3e28851c	0.16457027
66	0x3e5b78e0	0.21432829
67	0xbed73856	-0.42035168
68	0x3e2c5ea8	0.16832983
69	0x3e2515c0	0.16121578
70	0x3eddb4d0	0.4330201
71	0xbe0dba16	-0.13840517
72	0x3ecbf840	0.39837837
73	0x3eca5a92	0.39522225
74	0x3db48ec0	0.0881629
75	0xbdc83ba8	-0.097770035
76	0x3e9975e2	0.2997275
77	0x3d9c1fc8	0.07623249
78	0xbe5b1b3c	-0.21397108
79	0x3e8f6ec6	0.280142
80	0x3edd6310	0.4323964
81	0x3e3aafd0	0.1823113
82	0xbea66dcf	-0.32505652
83	0x3e832cc0	0.2562008
84	0x3e99a9ae	0.30012268
85	0x3e16f374	0.14741307
86	0x3ed09406	0.40737933
87	0x3cbb3060	0.022850215
88	0x3e2b27b4	0.16714364
89	0x3ea6ba7a	0.32564145
90	0xbe9d5c32	-0.30734402
91	0x3ea0288c	0.31280935
92	0xbe28c95c	-0.16483063
93	0xbea05120	-0.31311893
94	0x3ed5b060	0.41736126
95	0xbedcb4a5	-0.4310657
96	0xbdb2d0d0	-0.08731234
97	0xbe94f5e4	-0.2909385
98	0x3ec579d2	0.38569504
99	0x3da34988	0.07973009
100	0xbc1be260	-0.009514421
101	0x3d676ef0	0.056502283
102	0xbdb66050	-0.08905089
103	0xbe2bd5b4	-0.1678074
104	0xbc5e86c0	-0.013581932
105	0x3e8a203e	0.26977724
106	0x3b143200	0.002261281
107	0x3c8f5490	0.017496377
108	0xbe2b3932	-0.16721037
109	0xbe342266	-0.17591247
110	0xbde3a6e4	-0.11115816
111	0xbedc4b83	-0.4302636
112	0x3eabc412	0.33548027
113	0x3e4ec2d0	0.20191503
114	0xbe3c174e	-0.18368265
115	0x3dc7ae80	0.0975008
116	0xbecdaf62	-0.4017287
117	0x3e4f9818	0.20272863
118	0x3e82603e	0.25464052
119	0x3edd4d6a	0.43223125
120	0x3d9dc850	0.07704222
121	0xbdc0e934	-0.0941948
122	0xbe1575b8	-0.14595687
123	0xbd2ff6e0	-0.042960048
124	0xbe819cc1	-0.25314906
125	0x3ebcf726	0.3690731
126	0xbedb467d	-0.42827216
127	0x3dae06b8	0.08497375
128	0xbd892590	-0.066966176
129	0xbb2a7900	-0.0026012063
130	0x3e845136	0.2584321
131	0xbdc8f124	-0.09811619
132	0xbe9360ac	-0.28784692
133	0x3de564d0	0.11200869
134	0xbe80c984	-0.25153744
135	0xbeb214c7	-0.34781477
136	0x3cf769e0	0.030201852
137	0x3ec2e010	0.3806157
138	0xbe9a322b	-0.301164
139	0x3e697890	0.22799897
140	0x3de262b0	0.110539794
141	0x3e5a55a0	0.21321726
142	0x3ac3b400	0.0014930964
143	0xbd710e10	-0.0588513
144	0xbe874d00	-0.26425934
145	0x3e9aba32	0.3022018
146	0x3e2ba9ac	0.16763943
147	0xbea75cc8	-0.32687974
148	0x3e9edf2a	0.31029636
149	0x3b4bbd80	0.0031088293

wave_time.bias f4 [30]
0	0x3e3633e0	0.17793226
1	0xbea6c5c3	-0.32572755
2	0xbcdfcfb0	-0.027320713
3	0x3ec97392	0.39345986
4	0xbe8dfece	-0.27733463
5	0x3a245200	0.00062683225
6	0x3d194ab8	0.037424773
7	0xbe9150e9	-0.28382042
8	0x3e94ac7c	0.29037845
9	0x3e0a4c74	0.13505727
10	0x3e887efa	0.26659375
11	0xbc87ca00	-0.016575813
12	0x3e9a607c	0.30151737
13	0x3eb8bb60	0.36080456
14	0xbebbbae6	-0.3666603
15	0xbc928e50	-0.017890126
16	0x3e3646d4	0.17800456
17	0x3e3823c4	0.17982394
18	0xbedfa6a5	-0.43681827
19	0xbe6f7bd7	-0.23387085
20	0x3b8eb940	0.0043555796
21	0x3e950a66	0.29109496
22	0xbed1ba4a	-0.4096244
23	0xbed5d382	-0.4176293
24	0x3ebfaea6	0.37437934
25	0x3cb43f60	0.022002876
26	0x3e684910	0.22684121
27	0xbe8fc410	-0.2807927
28	0x3db2dec0	0.087338924
29	0x3dbd7d68	0.09252435

smallwaves.weight f4 [8, 96]
0	0xbd835c62	-0.06414105
1	0x3d860c64	0.06545332
2	0x3da302ba	0.079595044
3	0xbd1b3098	-0.03788814
4	0x3ba2f410	0.004972942
5	0x3d2b1c34	0.041774943
6	0x3d9eea5c	0.07759544
7	0x3da89004	0.08230594
8	0xbd22c415	-0.03973778
9	0x3d6aa778	0.057288617
10	0xbdb9171a	-0.090376094
11	0xbd38ee50	-0.045149148
12	0x3dc73f42	0.09728862
13	0xbdbc89e7	-0.0920599
14	0x3d8281e4	0.06372431
15	0x3d389328	0.045062214
16	0x3d9cd9aa	0.076587036
17	0x3d68dd78	0.056851834
18	0x3d88b56a	0.06675227
19	0xbc99c48c	-0.018770479
20	0x3cc6c658	0.0242645
21	0x3d4b12a8	0.04957834
22	0x3d155fc0	0.036468267
23	0xbca581ec	-0.020203553
24	0x3cf21ee0	0.029555738
25	0x3db28c50	0.08718169
26	0xbd486c78	-0.04893157
27	0x3d8c227e	0.06842516
28	0x3c8ebdc0	0.017424464
29	0x3d722d80	0.059125423
30	0xbd9db32e	-0.077001914
31	0x3cd531f8	0.026024804
32	0xbd06c436	-0.032901965
33	0xbc6e5630	-0.014546916
34	0x3d2842a8	0.041079193
35	0x3d07f688	0.033194095
36	0x3cad754c	0.021174096
37	0xbda40168	-0.08008081
38	0xbdc8cfc8	-0.09805256
39	0xbc8d7394	-0.017267026
40	0x3a70c600	0.0009184778
41	0x3d9dde86	0.077084586
42	0xbdabf082	-0.083954826
43	0xbd41a21c	-0.04727374
44	0xbcc58b0c	-0.024114154
45	0x3bc8c240	0.006126672
46	0xbd2557e6	-0.04036703
47	0x3d9f7010	0.07785046
48	0x3a44d600	0.0007508695
49	0x3d7c9eac	0.06167476
50	0x3d991406	0.07474522
51	0xbc54bfb0	-0.012985155
52	0x39a22c00	0.0003093183
53	0x3d6d88b0	0.057991683
54	0xbd9d31f2	-0.07675542
55	0xbccb69d4	-0.024830736
56	0x3c136398	0.008995913
57	0x3db1870c	0.08668336
58	0xbc8eecc4	-0.017446883
59	0xbd38d74c	-0.045127198
60	0xbd7500a7	-0.059815075
61	0x3dab904e	0.08377133
62	0x3cd9c298	0.026582047
63	0x3ce2a208	0.027665153
64	0xbdc0b4e1	-0.094095
65	0xbcc32540	-0.023821473
66	0x3c960f2c	0.018317781
67	0xbcb8449c	-0.022493653
68	0x3c9f9f98	0.01948528
69	0x3cbe0a50	0.023198277
70	0xbd1b8dce	-0.037977032
71	0xbd950ef8	-0.07278246
72	0xbd800654	-0.06251207
73	0xbdd09423	-0.10184505
74	0x3d9ba09a	0.07598992
75	0x3d390fdc	0.04518114
76	0x3ce2b2e0	0.027673185
77	0xbdc311ea	-0.09524901
78	0x3d575330	0.05256957
79	0xbd766402	-0.06015397
80	0xbdbedd15	-0.09319512
81	0x3da76d2a	0.08175118
82	0x3da17eb6	0.07885496
83	0x3dc809fa	0.09767528
84	0x3da87cbe	0.08226918
85	0x3c9907b8	0.018680438
86	0xbd81d058	-0.063385665
87	0x3da21150	0.07913458
88	0xbd24514e	-0.0401166
89	0x3d717eac	0.058958694
90	0xbdc60e69	-0.09670717
91	0x3d6ac55c	0.057317123
92	0xbd586a24	-0.0528356
93	0x3b8779f0	0.004134409
94	0x3b789c80	0.0037935078
95	0x3b3c6a60	0.0028749928
96	0xbd4bf842	-0.049797304
97	0xbd71a330	-0.05899352
98	0x3cf668f0	0.030079335
99	0xbda34395	-0.079718746
100	0x3c39d278	0.011341684
101	0x3d84dade	0.06487058
102	0xbd78a36f	-0.060702737
103	0xbd7b1203	-0.061296474
104	0x3d8094f8	0.062784135
105	0x3d920ad4	0.071309716
106	0xbd82c756	-0.063856766
107	0x3da3a950	0.07991278
108	0xbd3e85fd	-0.0465145
109	0xbba729f0	-0.005101435
110	0x3a92ad00	0.0011190474
111	0xbd2b9be5	-0.04189672
112	0xbd07fed8	-0.033202022
113	0x3c0b1670	0.008489236
114	0xbc8d86a4	-0.017276116
115	0x3c71d130	0.014759347
116	0xbd931350	-0.07181418
117	0x3aefec80	0.0018304735
118	0xbd6e4239	-0.058168624
119	0x3d6fe920	0.058571935
120	0x3bb54350	0.005531706
121	0xbd8df362	-0.06931187
122	0xbd239699	-0.039938543
123	0xbd4a0779	-0.049323533
124	0xbdbd4a04	-0.09242633
125	0xbc61d218	-0.013783
126	0xbdbcfb08	-0.09227568
127	0xbcb9d8e8	-0.022686437
128	0x3b552b00	0.003252685
129	0xbcb4a8a4	-0.02205307
130	0xbceb2674	-0.02870486
131	0xbd5e3456	-0.05424913
132	0x3c0ab2e0	0.008465499
133	0xbd8dcb0c	-0.06923494
134	0x3d016108	0.031586677
135	0xbcb5c564	-0.02218885
136	0x3d84d2d2	0.06485523
137	0x3bc8b930	0.0061255917
138	0xbd37f596	-0.044911943
139	0x3d02a310	0.03189379
140	0x3d15ced0	0.036574185
141	0x3ce65df8	0.02812098
142	0x3dadfd28	0.08495551
143	0xbc562d20	-0.013072282
144	0xbd132c78	-0.03593108
145	0xbc9fe0c8	-0.019516364
146	0xbda7f608	-0.082012236
147	0x3d022230	0.031770885
148	0xbb8687d0	-0.0041055456
149	0x3b89c6d0	0.0042046085
150	0x3db1bf1e	0.08679031
151	0xbd31f14e	-0.043443017
152	0xbc4bfbd8	-0.012450181
153	0xbd0a0b20	-0.033702016
154	0xbd7335d9	-0.059377525
155	0xbd8d1074	-0.06887904
156	0xbc232190	-0.009956732
157	0xbb8315b0	-0.004000388
158	0x3cc4e588	0.02403523
159	0xbcb03060	-0.021507442
160	0xbd9e828b	-0.07739743
161	0xbdcb6af8	-0.09932512
162	0xbcc8a01c	-0.024490409
163	0xbbee2ec0	-0.0072687566
164	0x3dc888c8	0.09791714
165	0xbd972b6c	-0.07381329
166	0xbd91eab8	-0.07124847
167	0x3dc705fc	0.09717938
168	0x3dc3d4c4	0.09562066
169	0x3db50b48	0.08840042
170	0x3ae0aac0	0.0017140731
171	0xbc1ed5e0	-0.009694546
172	0xbd9e4515	-0.0772802
173	0x3dc8b66e	0.09800421
174	0x3dabe92a	0.08394082
175	0x3dcf383c	0.10118148
176	0x3c97099c	0.0184372
177	0x3d74a2f0	0.0597257
178	0xbdbf6e49	-0.09347207
179	0x3db47994	0.08812252
180	0x3d96a346	0.07355361
181	0x3da48430	0.08033025
182	0xbda68e19	-0.08132572
183	0x3d47f348	0.048815995
184	0xbd04c318	-0.03241262
185	0x3daf3496	0.08554952
186	0xbd6013c3	-0.054706346
187	0x3d0950b8	0.033524245
188	0x3da6d1d8	0.08145493
189	0x3d7fded4	0.062468365
190	0x3da22ea2	0.07919051
191	0x3dc987ca	0.09840353
192	0xbd26810d	-0.040650416
193	0xbd6c0208	-0.057619125
194	0x3cb02124	0.021500178
195	0x3dc7fe30	0.09765279
196	0xbba95e70	-0.0051687285
197	0xbd7f75ec	-0.06236832
198	0x3d8fde2a	0.07024796
199	0x3dc9bae2	0.09850098
200	0xbdbc45d7	-0.091930084
201	0x3db02380	0.08600521
202	0x3b0b16c0	0.0021223277
203	0x3cf4a538	0.029863939
204	0x3db8a576	0.09015934
205	0x3c81f328	0.015863016
206	0xbd1b00e2	-0.03784264
207	0xbc89d514	-0.016825236
208	0x3d9c339a	0.0762703
209	0x3d82b4d8	0.063821495
210	0x3baacfb0	0.0052127466
211	0xbdb06033	-0.086120985
212	0x3d8753fe	0.06607817
213	0xbda8a7aa	-0.082351044
214	0x3d74fe14	0.05981262
215	0xbd96e374	-0.07367602
216	0xbdb39e90	-0.08770478
217	0xbdd02718	-0.101637065
218	0xbc91bba4	-0.01778967
219	0xbd33a52f	-0.043858703
220	0xbd4ec7c2	-0.050483473
221	0xbd07efbc	-0.033187613
222	0x3d9be17c	0.07611367
223	0x3dcb0482	0.09912969
224	0x3dcc84b0	0.09986246
225	0xbbbe27a0	-0.0058030635
226	0xbd915be9	-0.070976086
227	0xbdbe15e7	-0.09281521
228	0xbc60ebc0	-0.013728082
229	0xbd9fe154	-0.0780665
230	0xbb134ec0	-0.0022477359
231	0x3d99890a	0.07496841
232	0x3dae4c58	0.08510655
233	0xbd64fa66	-0.05590286
234	0x3dc9d03c	0.09854171
235	0xbd907bc6	-0.07054858
236	0x3dc2f78e	0.095198736
237	0xbd9fc4d9	-0.078012176
238	0x3d924a56	0.07143085
239	0xbd903646	-0.07041602
240	0x3d199200	0.037492752
241	0xbbcf9300	-0.0063346624
242	0x3da247d0	0.079238534
243	0xbce6c6bc	-0.028170936
244	0xbd2322fc	-0.039828286
245	0x3d191484	0.03737308
246	0xbc815680	-0.015788317
247	0x3c760af0	0.015017256
248	0xbdcad1b9	-0.09903283
249	0x3db76e00	0.08956528
250	0x3d64fea0	0.05590689
251	0xbd3795b9	-0.04482052
252	0xbdc850c2	-0.09781028
253	0xbd273e4d	-0.0408309
254	0x3bf0d510	0.007349618
255	0x3d0fcff4	0.03511043

smallwaves.bias f4 [8]
0	0x3d86f2c2	0.06589271
1	0xbd9aef72	-0.07565202
2	0xbd1a8bbe	-0.037730925
3	0xbcc3344c	-0.023828648
4	0xbd94e0b9	-0.07269425
5	0x3c9bc034	0.019012548
6	0x3daaaa42	0.08333255
7	0x3d97e9a4	0.0741761

embedding.weight f4 [32, 2]
0	0xbf2fd6e0	-0.6868725
1	0x3f2fd114	0.686784
2	0x3e83dca4	0.25754273
3	0x3f415978	0.75527143
4	0x3e227115	0.1586345
5	0x3f07fa84	0.5311663
6	0x3f3331c7	0.6999783
7	0x3f17171a	0.59019625
8	0x3f2f53e8	0.68487406
9	0xbec1d247	-0.3785574
10	0x3e55c35d	0.20875306
11	0xbf147e9b	-0.58005685
12	0x3e817b7f	0.25289533
13	0xbe95402b	-0.2915052
14	0xbee8d462	-0.45474535
15	0xbecc0ac9	-0.39851978
16	0xbebfd2d8	-0.3746555
17	0xbf34bba6	-0.7059883
18	0xbf28ddc0	-0.65963364
19	0x3f05a764	0.5220854
20	0xbf15b19c	-0.58474135
21	0x3f095cb1	0.5365706
22	0xbf080891	-0.5313807
23	0x3eaf1b83	0.34200677
24	0xbf230fe2	-0.6369611
25	0x3f1d281d	0.61389333
26	0xbf1ca4a0	-0.611887
27	0x3e9e5fa9	0.30932358
28	0xbdd1732e	-0.10227047
29	0x3eb672eb	0.3563455
30	0x3e5f7a68	0.21824038
31	0x3ee6790e	0.45014232
32	0x3f158f17	0.5842146
33	0x3ebaf0b1	0.36511758
34	0x3ddfe727	0.10932761
35	0xbe7e5547	-0.24837218
36	0x3ef8490f	0.4849324
37	0xbf28c7fd	-0.6593016
38	0x3c9d4ffe	0.019203182
39	0xbea717a9	-0.3263524
40	0xbe626818	-0.22110021
41	0xbee2edeb	-0.44322142
42	0x3f1a4256	0.6025747
43	0x3d9316ea	0.07182105
44	0x3e35a645	0.17739208
45	0xbf1f1a70	-0.62149715
46	0xbf543639	-0.8289524
47	0xbf1b50f8	-0.60670424
48	0x3f262a9d	0.6490877
49	0x3e73eeb8	0.23821533
50	0x3f559bca	0.8344084
51	0xbe4e4d15	-0.20146592
52	0xbda65534	-0.0812172
53	0x3da42de4	0.080165654
54	0xbf4fbb49	-0.8114515
55	0xbe98f132	-0.29871517
56	0xbee011bc	-0.4376353
57	0xbf060edf	-0.5236644
58	0x3d95ea65	0.07320098
59	0x3dcb5cf2	0.09929837
60	0x3ef9d3ec	0.48794496
61	0x3f3aeca4	0.73017335
62	0xbe892292	-0.26784188
63	0xbe23fb7d	-0.16013904

embedding.bias f4 [32]
0	0xbe09ca05	-0.1345597
1	0xbe8021af	-0.250257
2	0x3ea8f43b	0.32998833
3	0xbf14d4ef	-0.5813741
4	0xbd88528d	-0.0665637
5	0xbebd3cee	-0.36960548
6	0x3d9f36f7	0.077741556
7	0x3dc16a6d	0.09444127
8	0x3f067c00	0.5253296
9	0x3eec62dd	0.46169177
10	0xbed16692	-0.40898567
11	0xbe43ceca	-0.19121853
12	0xbebf3bfc	-0.37350452
13	0xbdc60101	-0.0966816
14	0x3c3405c7	0.010987706
15	0xbe8d6fed	-0.27624455
16	0xbed92671	-0.4241214
17	0x3e47cf03	0.19512562
18	0xbf13bc92	-0.5770961
19	0x3ef69cbe	0.4816646
20	0xbd8d2222	-0.06891276
21	0x3d9b564a	0.07584818
22	0xbe8d5759	-0.27605703
23	0xbd16a595	-0.036779005
24	0xbe89e592	-0.2693296
25	0x3e4236ba	0.18966189
26	0xbe995082	-0.29944235
27	0x3e87f8dc	0.26557052
28	0x3eaafcc0	0.33395958
29	0x3e3bf5a6	0.18355426
30	0x3e65fea2	0.22460416
31	0x3eb863f7	0.36013767

positional_encoding.pe f4 [1, 20, 32]
0	0x00000000	0.0
1	0x3f800000	1.0
2	0x00000000	0.0
3	0x3f800000	1.0
4	0x00000000	0.0
5	0x3f800000	1.0
6	0x00000000	0.0
7	0x3f800000	1.0
8	0x00000000	0.0
9	0x3f800000	1.0
10	0x00000000	0.0
11	0x3f800000	1.0
12	0x00000000	0.0
13	0x3f800000	1.0
14	0x00000000	0.0
15	0x3f800000	1.0
16	0x00000000	0.0
17	0x3f800000	1.0
18	0x00000000	0.0
19	0x3f800000	1.0
20	0x00000000	0.0
21	0x3f800000	1.0
22	0x00000000	0.0
23	0x3f800000	1.0
24	0x00000000	0.0
25	0x3f800000	1.0
26	0x00000000	0.0
27	0x3f800000	1.0
28	0x00000000	0.0
29	0x3f800000	1.0
30	0x00000000	0.0
31	0x3f800000	1.0
32	0x3f576aa4	0.84147096
33	0x3f0a5141	0.54030234
34	0x3f087dba	0.53316844
35	0x3f58940d	0.8460091
36	0x3e9f393e	0.3109836
37	0x3f734e6b	0.9504153
38	0x3e35233a	0.17689219
39	0x3f7bf683	0.9842302
40	0x3dcc7576	0.099833414
41	0x3f7eb898	0.9950042
42	0x3d6636ae	0.05620449
43	0x3f7f9868	0.9984193
44	0x3d01815b	0.031617504
45	0x3f7fdf3c	0.99950004
46	0x3c91ab42	0.017781857
47	0x3f7ff5a3	0.99984187
48	0x3c23d657	0.009999833
49	0x3f7ffcb9	0.99995
50	0x3bb8445a	0.0056233825
51	0x3f7ffef7	0.9999842
52	0x3b4f3e1c	0.0031622713
53	0x3f7fffac	0.999995
54	0x3ae91520	0.0017782785
55	0x3f7fffe6	0.99999845
56	0x3a83126d	0.0009999998
57	0x3f7ffff8	0.9999995
58	0x3a136a13	0.0005623411
59	0x3f7ffffd	0.9999998
60	0x39a5cb61	0.00031622782
61	0x3f7fffff	0.99999994
62	0x393a7753	0.00017782794
63	0x3f800000	1.0
64	0x3f68c7b7	0.9092974
65	0xbed51133	-0.41614684
66	0x3f66f20a	0.9021307
67	0x3edce8b2	0.43146282
68	0x3f17541b	0.5911271
69	0x3f4e7bec	0.8065784
70	0x3eb247f6	0.34820527
71	0x3f6ffaa6	0.93741834
72	0x3e4b6ff8	0.19866931
73	0x3f7ae5a5	0.9800666
74	0x3de5d986	0.1122313
75	0x3f7e61f3	0.9936821
76	0x3d8170c8	0.063203394
77	0x3f7f7cf9	0.9980007
78	0x3d11a55c	0.03555809
79	0x3f7fd68e	0.9993676
80	0x3ca3d43e	0.019998666
81	0x3f7ff2e5	0.9998
82	0x3c38439b	0.011246587
83	0x3f7ffbdb	0.99993676
84	0x3bcf3dd8	0.006324511
85	0x3f7ffeb1	0.99998003
86	0x3b691508	0.0035565514
87	0x3f7fff96	0.9999937
88	0x3b031268	0.0019999985
89	0x3f7fffdf	0.99999803
90	0x3a936a12	0.0011246821
91	0x3f7ffff5	0.99999934
92	0x3a25cb60	0.0006324556
93	0x3f7ffffd	0.9999998
94	0x39ba7753	0.00035565588
95	0x3f7fffff	0.99999994
96	0x3e1081c3	0.14112
97	0xbf7d7026	-0.9899925
98	0x3f7e45d7	0.9932532
99	0xbded7fab	-0.11596616
100	0x3f5009c2	0.8126489
101	0x3f152f58	0.58275366
102	0x3f022f6c	0.5085361
103	0x3f5c6d29	0.86104065
104	0x3e974e6c	0.2955202
105	0x3f7490ef	0.9553365
106	0x3e2beed7	0.16790329
107	0x3f7c5d9e	0.9858035
108	0x3dc1ffc0	0.094726086
109	0x3f7ed94f	0.99550337
110	0x3d5a694e	0.053323083
111	0x3f7fa2c3	0.9985773
112	0x3cf5b91f	0.0299955
113	0x3f7fe283	0.99955004
114	0x3c8a31c6	0.016869437
115	0x3f7ff6ad	0.9998577
116	0x3c1b6e0d	0.009486687
117	0x3f7ffd0d	0.999955
118	0x3baecfa8	0.005334813
119	0x3f7fff11	0.99998575
120	0x3b449b92	0.0029999954
121	0x3f7fffb5	0.9999955
122	0x3add1f17	0.0016870227
123	0x3f7fffe8	0.99999857
124	0x3a78b110	0.00094868336
125	0x3f7ffff9	0.9999996
126	0x3a0bd97e	0.0005334838
127	0x3f7ffffe	0.9999999
128	0xbf41bdcf	-0.7568025
129	0xbf275530	-0.6536436
130	0x3f4749ec	0.7784717
131	0xbf20af9e	-0.6276797
132	0x3f741dde	0.95358074
133	0x3e9a2eb1	0.30113748
134	0x3f271fbc	0.652828
135	0x3f41ebed	0.7575062
136	0x3ec761d7	0.38941833
137	0x3f6bcaa7	0.921061
138	0x3e6465c5	0.22304447
139	0x3f798d09	0.9748083
140	0x3e012e88	0.12615407
141	0x3f7df469	0.99201065
142	0x3d918dc8	0.07107121
143	0x3f7f5a46	0.9974712
144	0x3d23cbdb	0.039989334
145	0x3f7fcb94	0.9992001
146	0x3cb840a0	0.022491753
147	0x3f7fef6c	0.99974704
148	0x3c4f3cc9	0.01264877
149	0x3f7ffac2	0.99992
150	0x3be914a7	0.0071130577
151	0x3f7ffe58	0.9999747
152	0x3b831257	0.003999989
153	0x3f7fff7a	0.999992
154	0x3b136a0c	0.0022493629
155	0x3f7fffd6	0.9999975
156	0x3aa5cb5e	0.0012649109
157	0x3f7ffff3	0.9999992
158	0x3a3a7752	0.0007113117
159	0x3f7ffffc	0.99999976
160	0xbf757c10	-0.9589243
161	0x3e913c2c	0.2836622
162	0x3ea5dad8	0.32393527
163	0xbf723240	-0.94607925
164	0x3f7ffc7f	0.99994653
165	0xbc2972e9	-0.010342338
166	0x3f46caab	0.77652997
167	0x3f214cf1	0.6300803
168	0x3ef57743	0.47942552
169	0x3f60a940	0.87758255
170	0x3e8e11ed	0.2774805
171	0x3f75f27c	0.96073127
172	0x3e213c1d	0.15745588
173	0x3f7cce81	0.987526
174	0x3db5db21	0.08879686
175	0x3f7efd1e	0.99604976
176	0x3d4cb6f4	0.049979165
177	0x3f7fae19	0.99875027
178	0x3ce64dfb	0.028113356
179	0x3f7fe619	0.99960476
180	0x3c81857e	0.015810724
181	0x3f7ff7cf	0.999875
182	0x3c11acbb	0.00889128
183	0x3f7ffd69	0.9999605
184	0x3ba3d6dd	0.004999979
185	0x3f7fff2e	0.9999875
186	0x3b384489	0.0028117022
187	0x3f7fffbe	0.99999607
188	0x3acf3e33	0.0015811383
189	0x3f7fffeb	0.99999875
190	0x3a691526	0.0008891396
191	0x3f7ffff9	0.9999996
192	0xbe8f0f8c	-0.2794155
193	0x3f75cdb8	0.96017027
194	0xbe6be576	-0.23036751
195	0xbf791d53	-0.9731037
196	0x3f72784e	0.9471482
197	0xbea43f6d	-0.3207964
198	0x3f603088	0.8757405
199	0x3ef72f35	0.48278204
200	0x3f108c68	0.5646424
201	0x3f534932	0.8253356
202	0x3ea97dfc	0.3310393
203	0x3f7190e2	0.943617
204	0x3e41206e	0.18860027
205	0x3f7b67e3	0.98205394
206	0x3dda19c2	0.10649444
207	0x3f7e8b51	0.9943133
208	0x3d759cd1	0.059964005
209	0x3f7f8a12	0.99820054
210	0x3d0a2cbe	0.033734076
211	0x3f7fdab3	0.99943084
212	0x3c9b6c43	0.018972522
213	0x3f7ff434	0.99982
214	0x3c2ecf05	0.0106694745
215	0x3f7ffc45	0.9999431
216	0x3bc49b58	0.0059999637
217	0x3f7ffed2	0.999982
218	0x3b5d1f03	0.0033740408
219	0x3f7fffa1	0.99999434
220	0x3af8b108	0.0018973658
221	0x3f7fffe2	0.9999982
222	0x3a8bd97c	0.0010669674
223	0x3f7ffff7	0.99999946
224	0x3f283046	0.6569866
225	0x3f40ffbd	0.75390226
226	0xbf36b670	-0.7137213
227	0xbf334f5e	-0.7004298
228	0x3f4ce86e	0.8004216
229	0xbf1974bc	-0.5994375
230	0x3f728444	0.9473307
231	0x3ea3f8ba	0.320257
232	0x3f24eb72	0.6442176
233	0x3f43ccb3	0.7648422
234	0x3ec460de	0.38355154
235	0x3f6c6bc6	0.9235195
236	0x3e60d350	0.2195561
237	0x3f79c0ea	0.9755999
238	0x3dfe46ba	0.12415834
239	0x3f7e04e9	0.9922624
240	0x3d8f3e32	0.06994285
241	0x3f7f5f81	0.997551
242	0x3d21315e	0.03935372
243	0x3f7fcd3b	0.9992253
244	0x3cb552a2	0.022134129
245	0x3f7feff2	0.999755
246	0x3c4bf12a	0.012447635
247	0x3f7ffaec	0.9999225
248	0x3be55fc5	0.006999942
249	0x3f7ffe65	0.9999755
250	0x3b80fcbc	0.0039363783
251	0x3f7fff7e	0.99999225
252	0x3b1111ed	0.0022135929
253	0x3f7fffd7	0.99999756
254	0x3aa32866	0.0012447953
255	0x3f7ffff3	0.9999992

transformer.encoder.layers.0.self_attn.in_proj_weight f4 [96, 32]
0	0x3e72dad3	0.23716287
1	0x3e653c45	0.22386272
2	0xbd43f641	-0.047842268
3	0xbe32b38f	-0.17451309
4	0xbc986cad	-0.018606508
5	0xbe132c19	-0.1437229
6	0x3d8c0291	0.06836427
7	0x3dd6562a	0.10465653
8	0x3e6e61c6	0.23279485
9	0x3dcf45e5	0.10120753
10	0x3d31a8ed	0.04337399
11	0x3e4fcf22	0.20293859
12	0xbdad5ddf	-0.0846517
13	0x3e9a2b20	0.30111027
14	0x3e9e655d	0.3093671
15	0x3e67dcaf	0.22642778
16	0xbda4a6cc	-0.080396265
17	0x3e893538	0.26798415
18	0xbe3fa358	-0.18714654
19	0x3d4762c1	0.048678163
20	0xbd95a425	-0.07306699
21	0x3c16055d	0.009156552
22	0xbd186532	-0.037205882
23	0x3b53722f	0.0032264104
24	0x3c0a3c01	0.008437158
25	0x3d82c28e	0.063847646
26	0xbdfa5f44	-0.12225202
27	0x3e5b17f9	0.21395864
28	0xbda8f5dc	-0.08250019
29	0x3db2e93b	0.087358914
30	0xbdb6eb96	-0.08931653
31	0xbd6bb63e	-0.057546847
32	0xbcc5c83a	-0.024143327
33	0xbc6bf5ba	-0.0144018475
34	0xbe7231f7	-0.23651873
35	0xbe75a5f2	-0.23989084
36	0xbe158265	-0.14600523
37	0xbdbd8062	-0.09253003
38	0xbe8277b1	-0.25481942
39	0x3e6da489	0.23207296
40	0x3dcd35e3	0.10020044
41	0xbe34bfc1	-0.17651273
42	0x3d0b09e0	0.033944964
43	0x3dc96cff	0.098352425
44	0x3dca4dba	0.098781064
45	0xbe1eed3e	-0.15520188
46	0xbd82cccc	-0.06386718
47	0x3cd7b32e	0.026330557
48	0xbe319c5c	-0.17344803
49	0xbeab03fc	-0.33401477
50	0x3e1eb3fd	0.15498348
51	0xbe99d14d	-0.30042496
52	0x3eb2a0cb	0.348883
53	0xbebf4c36	-0.37362832
54	0xbd92dd8a	-0.071711615
55	0xbd882421	-0.06647516
56	0xbe18b8c8	-0.14914238
57	0xbe9def90	-0.30846834
58	0x3ddf3e2c	0.1090053
59	0x3ce2f916	0.027706664
60	0x3ea9e936	0.33185738
61	0xbe1b3c36	-0.15159687
62	0xbec8284d	-0.39093247
63	0xbe850858	-0.25982928
64	0x3da21711	0.07914556
65	0xbe17c474	-0.14821035
66	0x3d1462c3	0.036227
67	0x3d717629	0.058950577
68	0xbe927331	-0.2860351
69	0xbe8ef6ad	-0.27922574
70	0x3da76edd	0.08175442
71	0x3d408fe4	0.047012225
72	0x3e92cc29	0.28671387
73	0x3de6bcd6	0.11266486
74	0xbcc6ff63	-0.0242917
75	0x3e83e0fc	0.25757587
76	0x3e130b7a	0.14359847
77	0x3e5e0dab	0.21684901
78	0xbdfd63b4	-0.123725325
79	0x3e4cff0b	0.20019166
80	0xbe31080f	-0.1728823
81	0x3e752668	0.23940432
82	0xbe6e0e6f	-0.23247693
83	0x3e046c0d	0.12931843
84	0x3de278a5	0.11058167
85	0x3bc50ffa	0.0060138674
86	0xbe885e8f	-0.26634642
87	0x3ea386d7	0.31938812
88	0xbe46a86c	-0.19400185
89	0xbe3208cb	-0.17386167
90	0x3d315cf5	0.04330154
91	0x3e5f8bab	0.21830623
92	0x3e1e4b96	0.15458521
93	0x3bef0397	0.007294129
94	0xbccad881	-0.02476144
95	0x3d6c5750	0.057700455
96	0x3e4e043b	0.20118801
97	0x3d71d650	0.059042275
98	0xbdc1e3c9	-0.09467275
99	0x3e6744c5	0.22584827
100	0x3d81bb31	0.06334532
101	0xbc501f47	-0.01270277
102	0xbe6035d5	-0.21895535
103	0xbe8b362c	-0.27189767
104	0x3da00173	0.078127764
105	0xbe13b655	-0.14425023
106	0xbd01eb0f	-0.03171831
107	0xbd44c208	-0.048036605
108	0x3d17f2e0	0.037096858
109	0x3c1a547d	0.009419558
110	0x3e775b10	0.24155831
111	0x3e252e47	0.16130935
112	0xbcb8fbfc	-0.022581093
113	0x3c674367	0.014115191
114	0x3d03be5f	0.032163974
115	0x3e08220f	0.13294242
116	0xbe1320b3	-0.14367943
117	0x3e462c9d	0.19352956
118	0x3dc6e05e	0.097107634
119	0x3da224ff	0.07917213
120	0x3e657489	0.22407736
121	0xbdd6299a	-0.104571536
122	0x3e5d1e2b	0.2159354
123	0x3daf892a	0.08571084
124	0x3de7749c	0.11301538
125	0xbe2fca7b	-0.17167084
126	0x3d09357d	0.033498276
127	0xbdf9d874	-0.12199488
128	0xbe7324f5	-0.23744567
129	0xbd05e212	-0.0326863
130	0x3ea078da	0.31342202
131	0xbdbf07bd	-0.09327648
132	0x3e18cc7b	0.14921753
133	0xbe0db2d5	-0.1383775
134	0x3d46547a	0.048420407
135	0xbe859240	-0.26088142
136	0x3e27e5aa	0.16396204
137	0xbdef036c	-0.116705745
138	0xbd91c5a4	-0.07117775
139	0x3e05d5b0	0.13069797
140	0x3c9122c3	0.017716771
141	0xbdde50f1	-0.10855282
142	0xbdcf4c82	-0.101220146
143	0x3e2e92c2	0.17048171
144	0x3e880998	0.2656982
145	0xbdd447c2	-0.10365249
146	0xbe069fc1	-0.13146879
147	0x3e1d2c4a	0.15348926
148	0xbc84882b	-0.016178211
149	0x3ea9587c	0.3307532
150	0xbe589ef6	-0.21154389
151	0x3db9f64d	0.09080181
152	0x3e9e3164	0.30897057
153	0x3eadb59e	0.33927625
154	0xbe81a35f	-0.25319955
155	0x3c50f926	0.012754714
156	0xbdc5194a	-0.09623964
157	0xbcbef81e	-0.02331167
158	0x3c226aaa	0.009913126
159	0x3e0f3be1	0.13987686
160	0x3e3023b6	0.17201123
161	0xbdc4c22c	-0.09607348
162	0xbd6abf9f	-0.05731165
163	0xbde6e0c8	-0.11273342
164	0xbe4d01d0	-0.20020223
165	0x3d483a98	0.048884004
166	0xbe83dcba	-0.25754339
167	0xbddfc0e5	-0.109254636
168	0xbe40eadf	-0.18839596
169	0xbe80696c	-0.2508043
170	0x3dc100b4	0.09423962
171	0xbd9ca920	-0.076494455
172	0x3e875772	0.26433903
173	0xbd2c816a	-0.042115606
174	0xbdb93580	-0.090434074
175	0xbe99ede9	-0.30064324
176	0x3d58808c	0.052856967
177	0x3c52b31e	0.012860088
178	0xbe24727d	-0.16059299
179	0xbe982b1a	-0.29720384
180	0xbd98626d	-0.07440648
181	0xbe8c0073	-0.27344093
182	0xbd12647f	-0.03574037
183	0xbe5680cb	-0.20947568
184	0x3d9b212d	0.07574687
185	0xbdeee281	-0.11664296
186	0x3e5bafd9	0.214538
187	0x3a9f7f1e	0.0012168621
188	0x3d429484	0.047504917
189	0xbe608c6d	-0.21928568
190	0xbda74ff0	-0.08169544
191	0xbdf08ac4	-0.117452174
192	0x3d5ae775	0.05344339
193	0xbe8d3eeb	-0.27587065
194	0x3e49549d	0.19661184
195	0xbe8d0bf1	-0.27548173
196	0x3b7b3777	0.003833262
197	0xbe4cd5a7	-0.20003377
198	0xbe255550	-0.16145825
199	0x3d4edf65	0.050506014
200	0x3d548451	0.051884
201	0x3dcf14a4	0.10111359
202	0xbccf5a74	-0.025311686
203	0x3e643e44	0.22289377
204	0xbe170a07	-0.14749919
205	0xbde7521c	-0.11294958
206	0xbe30abc5	-0.17253025
207	0x3dbec279	0.093144365
208	0xbe92556b	-0.28580794
209	0x3e5e8cf2	0.21733454
210	0x3e0a01a5	0.1347719
211	0x3d3c4879	0.045967553
212	0xbced67ad	-0.0289801
213	0x3dd57ae7	0.104238324
214	0x3d14e61f	0.036352273
215	0x3da28dd3	0.07937207
216	0xbdf3470c	-0.118787855
217	0xbe1722ac	-0.1475932
218	0xbdb992e6	-0.09061222
219	0x3e23de64	0.16002804
220	0x3e2c7cd2	0.1684449
221	0x3d11be6e	0.035582
222	0x3d776962	0.060403235
223	0x3da2ca2a	0.07948716
224	0x3e28e2f8	0.16492832
225	0x3dd2bef0	0.10290325
226	0xbebd9bf5	-0.37033048
227	0x3d94caa0	0.0726521
228	0xbdbfd5bc	-0.093669385
229	0x3e6e3a36	0.23264393
230	0xbebe89ee	-0.37214607
231	0x3be170f3	0.0068799197
232	0xbd88896a	-0.06666835
233	0xbe0f6b83	-0.14005856
234	0x3df2c305	0.11853603
235	0xbe22e577	-0.15907846
236	0x3c59d6b0	0.013295814
237	0xbe1ed716	-0.15511736
238	0xbbc0fdc3	-0.0058896258
239	0xbde27114	-0.11056724
240	0xbdf9998c	-0.1218749
241	0xbdb24a0b	-0.08705529
242	0x3e7a96f8	0.24471653
243	0xbe808377	-0.251003
244	0x3d68d8b7	0.0568473
245	0xbea6043e	-0.32425112
246	0x3de7336d	0.112891056
247	0x3d844e76	0.06460278
248	0xbe81841c	-0.25296104
249	0xbd842221	-0.06451822
250	0x3eb4a7b2	0.3528419
251	0x3d8caace	0.06868516
252	0xbd062ffd	-0.03276061
253	0xbeafd669	-0.3434327
254	0xbe5f0888	-0.21780598
255	0xbdd1716c	-0.10226712

transformer.encoder.layers.0.self_attn.in_proj_bias f4 [96]
0	0x3da48488	0.08033091
1	0xbe080d65	-0.1328636
2	0x3d99dd1a	0.07512875
3	0x3c9c2b36	0.019063573
4	0x3dc02cf1	0.09383572
5	0xbdcaa9a7	-0.0989564
6	0x3c161187	0.009159452
7	0xbe14bbdc	-0.14524788
8	0x3d6b639f	0.057468053
9	0xbd6d8bef	-0.05799478
10	0x3d7147db	0.058906417
11	0xbd93a587	-0.07209306
12	0x3deafc55	0.1147391
13	0x3d052b24	0.032511845
14	0x3d50f489	0.051014457
15	0x3d8b04ab	0.06788
16	0x3de6a95d	0.11262772
17	0x3e368e22	0.17827657
18	0xbdf64ee4	-0.12026766
19	0x3e0d9410	0.13826013
20	0xbc2ea1b9	-0.010658675
21	0x3e5ee015	0.21765168
22	0x3b7c02d4	0.0038453834
23	0xbd9c11e3	-0.07620599
24	0x3d17690e	0.036965422
25	0x3dd168d4	0.102250725
26	0xbd819401	-0.06327058
27	0x3c66fe5e	0.014098732
28	0x3c983185	0.0185783
29	0xbd9f5ac7	-0.07780986
30	0x3de5755b	0.112040244
31	0x3b92747b	0.004469452
32	0x3cd45988	0.025921598
33	0xbca56ca7	-0.020193411
34	0x3c82aa97	0.015950484
35	0x3cb897e0	0.022533357
36	0x3c82ab9f	0.015950976
37	0xbc7a5878	-0.015279882
38	0x3c46fdf4	0.012145508
39	0xba3f337e	-0.0007293745
40	0x3afdf07f	0.0019374042
41	0x3b07d77f	0.002072781
42	0xba1176e6	-0.0005549028
43	0x3bcbf314	0.0062240455
44	0xbb8ce662	-0.0042999247
45	0xbc40f090	-0.011776105
46	0x3c0767a8	0.00826446
47	0xbc25f888	-0.010130055
48	0xbc3e0b8e	-0.011599435
49	0xba8803b1	-0.0010377077
50	0x3bbb27d6	0.005711536
51	0xbbbae539	-0.005703595
52	0x3cbea45b	0.02327173
53	0xbc4ba97e	-0.012430547
54	0x3c999fb5	0.018752912
55	0x3c2154c7	0.009846873
56	0xbac28a28	-0.0014842199
57	0xbc474c20	-0.012164146
58	0x3c2bf594	0.010495562
59	0xbc3b86cd	-0.011445713
60	0x3ab189b4	0.0013545067
61	0x3c35616b	0.01107059
62	0xbb392bcc	-0.0028254865
63	0xbc385ad6	-0.011252126
64	0xbc9130d5	-0.01772348
65	0x3bc96a4b	0.0061467043
66	0x3c058ee5	0.0081517445
67	0x3aeef278	0.001823022
68	0x3d66471a	0.05622015
69	0xbd26138e	-0.040545993
70	0x3b60b952	0.0034290147
71	0x3c7b14d7	0.015324793
72	0xbc7f779c	-0.015592482
73	0xbc979ca0	-0.018507302
74	0x3cf4f2c8	0.029900923
75	0x3c30dee2	0.010795327
76	0x3c99e3c1	0.01878536
77	0x3cc08d90	0.023505002
78	0xbcede410	-0.029039413
79	0x3a4adc24	0.0007738492
80	0xbb9e7a9b	-0.004836393
81	0xbce423d5	-0.027849117
82	0xbbfdeaca	-0.0077489363
83	0xbc7c8593	-0.015412706
84	0x3cb2abcd	0.021810437
85	0xbc3c21c6	-0.011482662
86	0xbc88ae2f	-0.01668462
87	0xbce0abe1	-0.027425708
88	0x3d1bbaf3	0.038020086
89	0xbc6c1a49	-0.014410564
90	0x3a9f8af5	0.001217215
91	0xbba9f34d	-0.0051864744
92	0xbb7aad36	-0.0038250214
93	0x3d2b387d	0.04180192
94	0x3cc1c462	0.023653213
95	0x3cd3093d	0.025761241
