perception_pkgs/tcp_link_angle/model/transformer.pth (torch, 229069 bytes, 77 tensors)

conv_eeg.weight f4 [28, 32, 5]
0	0x3cf2d808	0.029644027
1	0xbc746c88	-0.014918454
2	0xbd70f1c4	-0.058824316
3	0x3d4262f2	0.047457643
4	0xbd2b736f	-0.041858133
5	0xbd07b88c	-0.033134982
6	0xbd18522f	-0.03718775
7	0xbd0c5546	-0.03426101
8	0xbd2d4f93	-0.042312216
9	0xbc805cb4	-0.015669204
10	0x3d4999a2	0.04921878
11	0x3d5a1206	0.053239845
12	0x3d21ecaa	0.03953234
13	0x3d03ce82	0.032179363
14	0x3cf59484	0.029978044
15	0xbd3463e0	-0.04404056
16	0x3d757d66	0.059934042
17	0xbc2cb850	-0.01054199
18	0x3b9467f0	0.004528992
19	0xbcbdb208	-0.023156181
20	0x3d5c5d62	0.053799994
21	0xbd10bfea	-0.035339274
22	0xbd8dd2c6	-0.069249675
23	0x3d185df2	0.03719897
24	0x3d41204e	0.04714995
25	0x3d013720	0.031546712
26	0x3abf0880	0.0014574677
27	0xbd989130	-0.07449567
28	0xbd8560ec	-0.06512627
29	0x3c95ac38	0.018270597
30	0x3d2ed442	0.042682894
31	0xbd2b08e5	-0.04175653
32	0xbd102b1a	-0.035197355
33	0x3d99b2ab	0.07504781
34	0x3c09f930	0.008421227
35	0xbd66cee9	-0.05634967
36	0x3d39d446	0.045368455
37	0x3ccb5e70	0.024825305
38	0x3cf987a8	0.030460194
39	0xbd80ea3c	-0.06294677
40	0x39e8dd00	0.00044415146
41	0x3cdb30a8	0.0267566
42	0x3c0872c0	0.00832814
43	0x3aef3240	0.0018249229
44	0xbd6897d2	-0.056785412
45	0x3cb6cdcc	0.022314928
46	0xbd91cd5f	-0.071192496
47	0xbc632a78	-0.013865106
48	0xbc315758	-0.010824047
49	0x3d850433	0.064949416
50	0xbcf5a884	-0.029987581
51	0xbd9001dc	-0.07031605
52	0xbc45f190	-0.012081519
53	0xbd9f5a8d	-0.07780943
54	0x3d7d13be	0.061786406
55	0xbd56338e	-0.05229526
56	0xbcf87270	-0.030328006
57	0xbd81ce74	-0.06338206
58	0x3d63b96a	0.055596747
59	0x3d227190	0.039659083
60	0x3c9c1198	0.019051358
61	0x3bb3b5a0	0.005484298
62	0xbc02ed10	-0.00799109
63	0xbce6757c	-0.028132193
64	0x3d35dae8	0.04439822
65	0xbd32ef71	-0.04368538
66	0xbd2a414a	-0.04156617
67	0x3cc0bb5c	0.02352684
68	0x3d16c52c	0.03680913
69	0x3d50d98a	0.05098871
70	0x3d9c6b99	0.0763771
71	0xbd248a4f	-0.040170964
72	0x3cb021c0	0.021500468
73	0xbd9cc5e9	-0.07654936
74	0xbca15668	-0.019694522
75	0x3d7b1eae	0.061308555
76	0x3bd8a250	0.006611146
77	0xbcc623fc	-0.02418708
78	0xbd6149d6	-0.055002056
79	0xbd12967b	-0.03578804
80	0xbba88b50	-0.0051435605
81	0xbd026f8c	-0.03184466
82	0xbc9f591a	-0.019451667
83	0xbab5bfc0	-0.001386635
84	0xbc5f9cf0	-0.013648257
85	0xbc9a8c0c	-0.018865608
86	0x3d9fbc97	0.077996425
87	0x3d139e4c	0.036039636
88	0xbc9c60ea	-0.019089181
89	0xbc814d74	-0.015784003
90	0x3b5fefe0	0.0034170076
91	0xbd2008bd	-0.039070833
92	0x3d0121a2	0.031526215
93	0xbd17cd17	-0.037060823
94	0x3cc0ea80	0.023549318
95	0x3d809027	0.06277495
96	0x3d803517	0.06260126
97	0x3d335564	0.043782607
98	0xbafd3680	-0.001931861
99	0x3cd2a424	0.025713034
100	0x3d85b45f	0.06528544
101	0xbd58ac7c	-0.05289887
102	0x3b5cc680	0.003368765
103	0x3d3364e8	0.043797404
104	0xbcaa77f8	-0.020809159
105	0x39bfaf00	0.00036560744
106	0x3c9d0e0c	0.019171737
107	0xbcb0731a	-0.02153926
108	0xbd72414e	-0.05914431
109	0x3d8db5db	0.06919452
110	0x3d846abf	0.06465673
111	0xbd8e9888	-0.06962687
112	0x3d43934a	0.047747888
113	0xbd977b0d	-0.07396517
114	0xbc29d768	-0.010366298
115	0xbd001509	-0.03127006
116	0xbc83f3d0	-0.01610747
117	0xb70bc000	-8.329749e-06
118	0x3c88a6b8	0.01668106
119	0x3bf629e0	0.007512316
120	0xbd90a9ac	-0.07063612
121	0x3d91f737	0.071272306
122	0x3b7face0	0.0039012954
123	0x398e1b00	0.00027104467
124	0x3d6ecf96	0.058303438
125	0x3d01d61e	0.03169834
126	0xbc36e428	-0.011162795
127	0xbc86ade0	-0.016440332
128	0x3c3c0640	0.0114760995
129	0x3d0d0e92	0.034437723
130	0xbcbbc554	-0.022921242
131	0x3d890303	0.066900276
132	0xbd46221d	-0.048372377
133	0x3d4daa26	0.050211094
134	0xbc2c51a0	-0.010517508
135	0xbb064c20	-0.0020492151
136	0xbd3956ce	-0.0452488
137	0x3d91bf8f	0.07116615
138	0x3c8299e8	0.015942529
139	0x3d53a2aa	0.0516688
140	0xbd902933	-0.07039108
141	0xbd200f34	-0.039077
142	0x3d012fa0	0.03153956
143	0xbc8477c4	-0.01617039
144	0xbd6d8be0	-0.057994723
145	0xbd3b74f2	-0.045765825
146	0x3d92f7a9	0.07176144
147	0x3d4518d6	0.04811939
148	0x3c9777f8	0.018489823
149	0xbd4edaaa	-0.050501503
150	0x3d1a6f14	0.03770359
151	0x3ca8718c	0.020561956
152	0xbd84d5f5	-0.064861216
153	0x3d5712d6	0.052508198
154	0x3d332a4a	0.043741502
155	0xbcf302d0	-0.029664427
156	0xbb27e1c0	-0.0025616735
157	0x3d6d02a6	0.057863854
158	0x3d0b6748	0.034034044
159	0x3c1ed290	0.009693757
160	0xbd8ea79f	-0.06965565
161	0x3d52f9b2	0.05150766
162	0xbc276bf8	-0.010218613
163	0x3cf7acf4	0.030233838
164	0xbcd2abbc	-0.025716655
165	0x3d27252c	0.040806934
166	0xbd8fce77	-0.07021802
167	0x3c2cbd88	0.010543235
168	0xbd3a0946	-0.045419
169	0xbc277968	-0.010221817
170	0x3d31010a	0.04321388
171	0x3d4c7c6e	0.049923353
172	0x3d98baf5	0.07457534
173	0xbd555ba6	-0.052089356
174	0x3d9c3ab9	0.07628388
175	0xbd0bbce6	-0.034115694
176	0xbca962e4	-0.020677038
177	0xbc90bad4	-0.017667212
178	0xbd84ff86	-0.0649405
179	0xbd297a01	-0.041376118
180	0xbba86a80	-0.005139649
181	0x3ced8000	0.0289917
182	0xbca5c670	-0.020236224
183	0xbd5e9fa0	-0.05435145
184	0x3d1a7494	0.037708834
185	0xbd19bfd3	-0.037536453
186	0x3d5d9ffa	0.054107644
187	0x3d673f66	0.056456946
188	0x3d75748a	0.059925593
189	0x3d899f7b	0.067198716
190	0x3d598ece	0.053114705
191	0xbd2bc350	-0.04193431
192	0x3d32dea2	0.04366935
193	0xbc5fbf90	-0.013656512
194	0x3d00cc5e	0.0314449
195	0xbd6ee680	-0.05832529
196	0x3d81bcc9	0.06334836
197	0x3d96ed15	0.073694386
198	0x3d52ce46	0.05146625
199	0xbc6ed668	-0.014577486
200	0xbbbe0d00	-0.0057998896
201	0x3c4982a8	0.012299217
202	0xbd7c42d2	-0.061587162
203	0x3d967db7	0.07348197
204	0x3b6e8a60	0.0036398396
205	0xbd894642	-0.06702854
206	0xbd9eba52	-0.077503815
207	0x3a9f4900	0.0012152493
208	0xbd9e32bc	-0.077245206
209	0xbd8a4fd4	-0.06753507
210	0x3d0d4360	0.034488082
211	0xbd2e3e29	-0.04253975
212	0x3cd40b30	0.02588424
213	0xbd4e094c	-0.050301835
214	0x3c333860	0.010938734
215	0x3d6cac4a	0.057781495
216	0xbd9cc1dd	-0.07654164
217	0x3cd33410	0.025781661
218	0xbd48f0c0	-0.049057722
219	0x3d3aa9e8	0.04557219
220	0xbd5537c4	-0.052055135
221	0x3c230dd0	0.009952024
222	0x3d018942	0.03162504
223	0xba050480	-0.0005074218
224	0x3d868f6f	0.065703265
225	0x3caa7c90	0.02081135
226	0x3d8c6b85	0.06856445
227	0xbd4ddf5a	-0.050261833
228	0x3d236334	0.03988953
229	0x3d998db1	0.074977286
230	0x3cc90720	0.02453953
231	0xbd223892	-0.03960473
232	0xbc5fcb58	-0.013659321
233	0xbc9cdb04	-0.019147404
234	0x3c96ef80	0.01842475
235	0xbbd4b780	-0.0064916015
236	0xbd409347	-0.047015455
237	0x3c26c6b0	0.010179207
238	0x3d437ae2	0.047724612
239	0x3a478300	0.0007610768
240	0x3ce8ffe8	0.028442338
241	0xbc7f71f8	-0.015591137
242	0xbd3b7763	-0.045768153
243	0xbd7b3032	-0.06132526
244	0xbce430c2	-0.02785528
245	0x3d16c5ba	0.03680966
246	0xbd1f18c3	-0.038841974
247	0xbbdea9e0	-0.006795153
248	0xbd948bdf	-0.07253241
249	0xbcfe8ab4	-0.031071998
250	0x3d4c3786	0.04985764
251	0x3c2e0080	0.010620236
252	0x3c9e3e9c	0.019316964
253	0x3d215650	0.039388955
254	0x3c057058	0.008144461
255	0xbd5397aa	-0.05165831

conv_eeg.bias f4 [28]
0	0xbd281efc	-0.041045174
1	0x3d051744	0.03249289
2	0xbd3a0048	-0.045410424
3	0xbd7f39e4	-0.06231107
4	0xba7a7980	-0.0009554848
5	0xbca89cf8	-0.020582661
6	0x3d3e5d26	0.046475552
7	0xbcc59720	-0.024119914
8	0xbd8dded8	-0.0692727
9	0x3c582100	0.013191462
10	0x3d9774a1	0.07395292
11	0x3d0e1b70	0.034694135
12	0x3d664146	0.056214593
13	0x3cb137c0	0.021633029
14	0x3d5dc28a	0.054140605
15	0xbcd5d8c6	-0.026104342
16	0x3c752db8	0.0149645135
17	0x3d1f0f84	0.038833156
18	0x3c8e9c3c	0.017408483
19	0x3d076052	0.033050843
20	0x3cc04618	0.023470923
21	0x3d3df666	0.046377562
22	0x3bfe0620	0.007752195
23	0x3d84fe6b	0.06493839
24	0x3d8a46a7	0.06751757
25	0xbcaa554c	-0.020792626
26	0xbd95af7a	-0.0730886
27	0xbd9c71b0	-0.07638872

conv_eeg2.weight f4 [24, 28, 3]
0	0xbd1454d8	-0.036213726
1	0xbd8d9f1e	-0.06915115
2	0xbd8d7575	-0.06907169
3	0xbafa0b80	-0.0019076914
4	0x3da8ae0b	0.08236321
5	0x3dc0a37d	0.09406183
6	0x3d001a0e	0.031274848
7	0xbdbde068	-0.09271318
8	0xbc580a68	-0.013186075
9	0xbc342868	-0.010995962
10	0xbdb0ec1a	-0.08638783
11	0xbdb55949	-0.088549204
12	0xbdbfe7f8	-0.093704164
13	0xbda607ac	-0.08106932
14	0x3b97c3f0	0.004631512
15	0x3cdf3624	0.027247496
16	0xbcf0c604	-0.029391296
17	0xbce16c4c	-0.02751746
18	0x3b997ef0	0.0046843216
19	0xbd7ab8e5	-0.061211485
20	0x3d9c54a7	0.07633334
21	0x3c3a11a0	0.011356741
22	0xbd542ec5	-0.051802415
23	0xbd22ef62	-0.039779074
24	0xbd472ca8	-0.048626572
25	0xbd861a44	-0.065479785
26	0xbd488ba6	-0.048961304
27	0xbd8aff6a	-0.067869976
28	0x3d2b212e	0.04177969
29	0x3ca70964	0.02039022
30	0xbd13032a	-0.03589169
31	0xbd34f996	-0.044183336
32	0xbc748f18	-0.014926694
33	0x3d95fc8b	0.073235594
34	0xbd69fdee	-0.05712693
35	0x3ba907f0	0.005158417
36	0x3cc8e59c	0.024523549
37	0xb9fc4f00	-0.00048124045
38	0x3dbac26d	0.09119115
39	0xbda01ad6	-0.078176185
40	0x3c35a910	0.011087671
41	0xbbeba3a0	-0.0071911365
42	0xbd4cd36a	-0.050006308
43	0xbd309a88	-0.043116122
44	0xbb3b8280	-0.002861172
45	0x3ce202fc	0.027589314
46	0x3c882cb4	0.016622879
47	0xbda98b69	-0.082785435
48	0xbc10c010	-0.008834854
49	0xbd0444dc	-0.032292232
50	0xbd894a51	-0.06703628
51	0x3d1e3f86	0.0386348
52	0x3dcf8b29	0.101339646
53	0xbdcb5b35	-0.09929506
54	0x3da13acf	0.07872545
55	0x3ca5ca4c	0.020238064
56	0x3da32f71	0.07968033
57	0x3cd294ac	0.025705658
58	0xbd326f24	-0.043563023
59	0xbc9c9584	-0.019114263
60	0xbc0505f0	-0.008119091
61	0x3dbfe231	0.093693145
62	0xbdad559a	-0.08463593
63	0xbcdfd964	-0.02732534
64	0xbd6505f7	-0.05591389
65	0x3d763a02	0.060113914
66	0x3cbf0c54	0.023321308
67	0xbcdb83c4	-0.02679623
68	0x3d525562	0.05135096
69	0xbc007c30	-0.007842109
70	0xbd29a7a6	-0.041419648
71	0x3a356900	0.0006920248
72	0xbaf19440	-0.0018431023
73	0xbd05433c	-0.032534823
74	0x3c21a2a8	0.00986544
75	0xbdb4443b	-0.088020764
76	0xbd73af73	-0.059493493
77	0x3dbf7f87	0.09350496
78	0x3ce2891c	0.02765327
79	0xbdc14550	-0.094370484
80	0xbdaf8f42	-0.08572246
81	0xbdceb262	-0.100926176
82	0xbda9d931	-0.08293379
83	0xbcf097a0	-0.029369175
84	0xbbbb26c0	-0.0057114065
85	0xbdc09a3d	-0.094044186
86	0xba2da780	-0.0006624386
87	0x3ddb13af	0.10697114
88	0xbdd60e55	-0.10451952
89	0xbd06efa6	-0.03294339
90	0x3c46eb98	0.012141131
91	0xbd4101d3	-0.04712088
92	0xbd8a79a4	-0.06761482
93	0xbcbe2dcc	-0.023215197
94	0xbd2a5426	-0.041584156
95	0x388c9800	6.7040324e-05
96	0x3d06c50e	0.03290277
97	0x3db07e2f	0.086178176
98	0x3c8c91fc	0.017159455
99	0xbd5b8b23	-0.053599488
100	0xbd65c4b0	-0.05609578
101	0x3d72a5b2	0.05924005
102	0x3dc560b5	0.09637586
103	0xbd53114d	-0.05153017
104	0xbba4bd20	-0.0050274283
105	0xbd3524fa	-0.044224717
106	0xbc0e33f8	-0.0086793825
107	0x3bc38cd0	0.005967714
108	0x3dd7977f	0.105269425
109	0xbc9a1dc4	-0.018813021
110	0x3b960c00	0.004579067
111	0xbd84cafc	-0.06484029
112	0x3c359940	0.011083901
113	0xbdb36db7	-0.08761161
114	0x3da7d337	0.08194583
115	0xbc5c26e8	-0.01343701
116	0xbdc4e6ad	-0.096143104
117	0x3d57531a	0.052569486
118	0x3d7fb77e	0.06243085
119	0xbd8f6121	-0.07000948
120	0xbda10811	-0.07862867
121	0x3c717cf8	0.0147392675
122	0xbda809ce	-0.08204995
123	0x3cae3694	0.02126626
124	0x3d8153c1	0.06314803
125	0xbd6f2915	-0.05838879
126	0x3d807a7f	0.06273364
127	0xbd2331d8	-0.039842457
128	0x3dc67c8b	0.096917234
129	0x3d8c2549	0.06843049
130	0x3d233c26	0.039852284
131	0x3dcb81d1	0.0993687
132	0x3dde7171	0.10861481
133	0xbdb013d0	-0.08597529
134	0xbd44acd8	-0.0480164
135	0xbb800430	-0.003906749
136	0x3ca1b8a4	0.019741364
137	0x3d09fa4a	0.03368596
138	0x3b902780	0.00439924
139	0xbdb24497	-0.08704489
140	0x3dd67e6d	0.104733326
141	0x3d2319ea	0.039819635
142	0x3d5d7f62	0.05407656
143	0xbc63e498	-0.0139094815
144	0xbd91ad30	-0.07113111
145	0xbc8353a8	-0.016031101
146	0x3d52390a	0.051323928
147	0x3d0413fe	0.03224563
148	0x3da0c3bf	0.078498356
149	0xbbf79220	-0.0075552613
150	0xbd3c1136	-0.04591485
151	0x3d8e8b27	0.06960135
152	0xbdcf8ed4	-0.10134664
153	0x3d99d66d	0.075116016
154	0xbca1d008	-0.019752517
155	0xbd282628	-0.041052014
156	0xbddf561c	-0.10905096
157	0x3dafdccb	0.08587035
158	0xbd885203	-0.066562675
159	0xbda42153	-0.080141686
160	0xbd2167d2	-0.03940565
161	0xbd8df446	-0.06931357
162	0x3c018408	0.007905014
163	0x3d5e35ca	0.054250516
164	0xbd805a35	-0.062672056
165	0xbdcea2e0	-0.1008966
166	0x3b6c26a0	0.0036033764
167	0xbdbd24c5	-0.09235529
168	0x3d69447e	0.056950085
169	0x3d40be56	0.04705652
170	0xbd7f6980	-0.062356472
171	0x3d34c6de	0.044134967
172	0xbceb2564	-0.028704353
173	0x3d89652b	0.067087494
174	0x3cb6b18c	0.022301458
175	0xbcf5ff10	-0.03002885
176	0x3da5fce1	0.081048734
177	0xbdaa63e7	-0.08319836
178	0x3c919944	0.017773278
179	0xbc8e9a5c	-0.017407589
180	0x3d3b2786	0.04569199
181	0x3c0f52d8	0.008747779
182	0x3d9e5c5b	0.07732459
183	0x3d737dc6	0.05944612
184	0xbcc44ea8	-0.023963287
185	0x3db042a9	0.086064644
186	0xbce5b6f0	-0.028041333
187	0xbd8abe22	-0.06774546
188	0x3cd73a0c	0.026272796
189	0x3d490272	0.049074598
190	0xbdc934f3	-0.098245524
191	0xbda65b5f	-0.081228964
192	0xbc79a078	-0.015236013
193	0xbc013968	-0.007887222
194	0xbd009b10	-0.03139788
195	0x3c379128	0.011204042
196	0x3d66559a	0.05623398
197	0x3c1b0d90	0.009463683
198	0x3d38c82a	0.045112766
199	0xbd9f50e6	-0.07779102
200	0x3d27ddb6	0.040982924
201	0x3cf2696c	0.029591285
202	0xbc147780	-0.009061694
203	0x3cbe3054	0.023216404
204	0x3d62b4da	0.055348255
205	0x3d323b1a	0.043513395
206	0x3cf45ddc	0.029829912
207	0x3db8df67	0.090269856
208	0x3dc726f5	0.09724227
209	0xbd78587d	-0.060631264
210	0xbcf868ec	-0.030323468
211	0x3ca138bc	0.019680373
212	0xbc10e2a8	-0.008843102
213	0x3d856305	0.06513027
214	0xbdcb7691	-0.09934724
215	0x3c4f19e8	0.012640454
216	0x3d85736f	0.06516158
217	0x3be04910	0.006844647
218	0x3ab928c0	0.0014126524
219	0x3d6eae2a	0.058271565
220	0xbc0391c8	-0.008030362
221	0xbbe79130	-0.0070668682
222	0xbb60c4c0	-0.003429696
223	0xbd3e5170	-0.046464384
224	0xbd7633dc	-0.06010805
225	0xbdc1bca7	-0.09459811
226	0xbbbf5b70	-0.0058397576
227	0x3cc94a14	0.024571456
228	0xbda72836	-0.081619665
229	0x3dbe5639	0.092937894
230	0x3bd94330	0.006630324
231	0xbdb76974	-0.089556605
232	0x3dadd339	0.08487553
233	0x3d87620d	0.066104986
234	0xbdd0d8b7	-0.10197585
235	0x3dd6bc37	0.10485118
236	0xbced69c0	-0.02898109
237	0xbb929d10	-0.0044742897
238	0x3da0220b	0.07818993
239	0xbdb9b67a	-0.09068008
240	0x3dbffce3	0.09374406
241	0x3d4edf1a	0.050505735
242	0xbd900f27	-0.0703414
243	0x3c5c1ed8	0.013435088
244	0x3cca92e4	0.024728246
245	0xbbe3f460	-0.006956622
246	0xbd9bce43	-0.07607701
247	0x3d9744ad	0.07386146
248	0xbbe03610	-0.0068423823
249	0xbdc671a3	-0.09689643
250	0x3b8f24d0	0.004368402
251	0xbda2d12c	-0.079500526
252	0xbddd9de8	-0.10821134
253	0xbcabf80c	-0.020992301
254	0xbce51180	-0.027962446
255	0x3d654e6e	0.055983

conv_eeg2.bias f4 [24]
0	0xbd28b456	-0.041187607
1	0xbd9eb2e0	-0.077489614
2	0xbdae266e	-0.08503424
3	0xbc2b2178	-0.010444991
4	0xbd5600a0	-0.05224669
5	0x3ddc148b	0.10746106
6	0xbdc3aae7	-0.095540814
7	0x3da295cd	0.079387285
8	0xbdd83ff5	-0.10559074
9	0xbdb4ab78	-0.088217676
10	0x3c709b58	0.014685474
11	0x3d7a7256	0.061144195
12	0xbdb99368	-0.09061319
13	0xbd951893	-0.07280078
14	0x3d389b76	0.045070134
15	0x3d821c6b	0.063530765
16	0x3c774728	0.015092649
17	0xbd85f37c	-0.065405816
18	0x3dd3d86d	0.10344014
19	0x3b6afd40	0.0035856515
20	0x3dbc1e8f	0.09185516
21	0x3d3fc6be	0.046820395
22	0xbdddbcdd	-0.108270384
23	0x3db1809d	0.08667109

wave_time.weight f4 [30, 5]
0	0x3eab7574	0.33488047
1	0x3ed94b3e	0.42440218
2	0x3e37e8b0	0.17959857
3	0xbed7caf8	-0.4214704
4	0x3ec72608	0.38896203
5	0x3ec11c00	0.37716675
6	0xbdaee584	-0.085398704
7	0xbd5f9c68	-0.05459252
8	0xbe5a0fdf	-0.21295117
9	0x3e8d198e	0.2755856
10	0x3ec8369a	0.39104158
11	0xbd42c8f0	-0.04755491
12	0xbea8848d	-0.32913628
13	0xbec8c8e6	-0.39215773
14	0x3ed44222	0.41456705
15	0x3e1a3adc	0.15061516
16	0xbecf383d	-0.40472594
17	0xbe52fac8	-0.20603478
18	0xbd702690	-0.058630526
19	0xbe269012	-0.16265896
20	0x3db94118	0.09045619
21	0x3e1d5794	0.1536544
22	0x3e24ebb8	0.16105545
23	0xbe06fe2a	-0.13182893
24	0xbe8e1578	-0.27750754
25	0x3ee14b14	0.44002593
26	0x3e8a5a02	0.27021796
27	0x3e76689c	0.24063343
28	0x3eb45058	0.35217547
29	0x3ed87b62	0.42281634
30	0x3bd0e000	0.006374359
31	0x3c46cc40	0.012133658
32	0xbe023928	-0.12717116
33	0xbe3a6534	-0.18202668
34	0x3e80a43a	0.25125295
35	0xbecfb37b	-0.4056662
36	0xbc46ff80	-0.012145877
37	0x3e829532	0.25504452
38	0xbed5e6fe	-0.41777796
39	0x3d3bfa98	0.04589328
40	0x3eb6f55c	0.3573407
41	0xbe3e24e4	-0.1856876
42	0x3ea4eb78	0.32210898
43	0xbe566772	-0.20937899
44	0xbebd1aad	-0.36934415
45	0x3e81e2f0	0.25368452
46	0xbe4623fc	-0.19349664
47	0xbeae0acd	-0.33992615
48	0x3eb61758	0.35564685
49	0x3ee2389c	0.44183815
50	0x3e7d81a0	0.2475648
51	0x3d2ac9e8	0.04169646
52	0xbdbca6f0	-0.09211528
53	0xbdd91be8	-0.10601026
54	0x3eb6d47e	0.35708994
55	0xbd8b717c	-0.06808755
56	0xbe85607e	-0.2605018
57	0x3ec5a346	0.3860113
58	0xbe1f2394	-0.15540916
59	0xbe3b05ca	-0.18263927
60	0xbdabadc8	-0.083827555
61	0x3e849c6a	0.25900584
62	0xbe2e50ae	-0.17022964
63	0xbe548581	-0.20754053
64	0xbe199dfa	-0.1500167
65	0xbebb15cb	-0.36540064
66	0x3cd5f5f0	0.026118249
67	0xbe73d152	-0.23810318
68	0xbee053cf	-0.4381394
69	0xbe52ad75	-0.20573981
70	0x3d569fb8	0.052398413
71	0x3e04b7f4	0.12960798
72	0xbeb0416c	-0.34424913
73	0x3e738998	0.23782957
74	0xbec644d6	-0.38724393
75	0xbedba41a	-0.42898637
76	0xbe855baf	-0.26046512
77	0x3e20ec68	0.15715182
78	0xbc797300	-0.015225172
79	0x3ea02db8	0.3128488
80	0x3e8dcd44	0.27695668
81	0x3dc044b8	0.09388107
82	0x3e3c7fc8	0.1840812
83	0x3e569264	0.20954281
84	0xbc679cc0	-0.014136493
85	0xbec03702	-0.37541968
86	0xbe18a6cc	-0.14907378
87	0xbe824d67	-0.25449678
88	0xbed51697	-0.41618797
89	0xbed550e0	-0.41663265
90	0xbedaff48	-0.4277289
91	0x3d0a7900	0.0338068
92	0x3ee3351e	0.44376463
93	0xbe4b778e	-0.19869825
94	0xbeaad565	-0.33365932
95	0xbeb4222a	-0.35182315
96	0x3e5e4200	0.21704865
97	0xbe0aa820	-0.13540697
98	0xbdec09a8	-0.11525279
99	0x3e825568	0.25455785
100	0xbea1fac3	-0.31636629
101	0x3ebc4182	0.36768728
102	0xbe9af124	-0.302621
103	0x3e169be8	0.14707911
104	0x3e3063ac	0.17225522
105	0xbea784e2	-0.3271857
106	0xbdde2e38	-0.10848659
107	0xbe6b9d51	-0.2300923
108	0xbe9cb718	-0.3060844
109	0x3e5e9b18	0.21738851
110	0x3c6a0520	0.014283448
111	0x3ee3cf58	0.44494128
112	0xbe2c03a8	-0.1679827
113	0x3ebcafe8	0.36852956
114	0xbd62df40	-0.05538869
115	0xbd8a60cc	-0.06756744
116	0x3e7fe1ec	0.24988526
117	0x3dd090f0	0.10183895
118	0x3e8a46b4	0.27007067
119	0xbe9365ce	-0.28788608
120	0xbe7e506f	-0.2483537
121	0x3de5ca98	0.11220282
122	0xbe06d9de	-0.13169047
123	0x3e7fc2b0	0.24976611
124	0xbeb3ee26	-0.3514263
125	0x3d854220	0.06506753
126	0x3e58fe24	0.21190697
127	0xbe9d1ca6	-0.3068592
128	0x3eccd854	0.40008795
129	0xbeade239	-0.33961657
130	0xbdb59948	-0.08867127
131	0x3e17cba8	0.14823782
132	0x3e2786bc	0.16359991
133	0xbe8494c4	-0.2589475
134	0xbe99344c	-0.29922712
135	0xbe25d7b8	-0.16195571
136	0x3ee20c7e	0.44150156
137	0x3e1dcb1c	0.15409511
138	0x3e17ead0	0.14835668
139	0x3d2f6158	0.042817444
140	0x3ebfaa2e	0.37434524
141	0xbe3a9714	-0.18221694
142	0xbdb3cb64	-0.08779028
143	0xbe82c720	-0.25542545
144	0x3d909d00	0.070611954
145	0xbd6bc470	-0.057560384
146	0xbe6adc35	-0.22935565
147	0xbe13b1b4	-0.14423257
148	0xbe8c3ea1	-0.27391532
149	0x3eb10d4a	0.3458045

wave_time.bias f4 [30]
0	0xbeda60c4	-0.4265195
1	0x3e54ca70	0.20780349
2	0xbe2e26bc	-0.17006963
3	0xbe6ace02	-0.22930148
4	0x3e221b6c	0.15830773
5	0xbea3c709	-0.3198779
6	0x3dc008c0	0.09376669
7	0x3cdc3040	0.026878476
8	0x3eb5e664	0.35527337
9	0x3e7dcdb4	0.24785501
10	0xbe35e772	-0.1776407
11	0x3d2074b0	0.039173782
12	0x3eb02c8e	0.34408993
13	0xbdfe6940	-0.124224186
14	0x3ea60646	0.3242666
15	0x3d19a768	0.037513167
16	0xbc167440	-0.00918299
17	0x3e76cc68	0.24101412
18	0xbe94dc48	-0.2907431
19	0x3e1448a8	0.14480841
20	0xbe860426	-0.2617504
21	0xbe90af82	-0.28258902
22	0xbe3ac04e	-0.18237421
23	0xbee45561	-0.4459639
24	0x3e8d98a2	0.27655512
25	0xbedd92de	-0.43276113
26	0x3e43abec	0.19108552
27	0x3eb7c832	0.35894924
28	0xbed7df4d	-0.42162552
29	0xbead0b0e	-0.33797497

smallwaves.weight f4 [8, 96]
0	0xbd4fbd1e	-0.050717466
1	0xbd6eef48	-0.058333665
2	0xbd91d17c	-0.07120034
3	0xbc15deb8	-0.009147339
4	0x3c16b688	0.009198792
5	0xbd3ff95d	-0.04686867
6	0xbd13689a	-0.035988428
7	0x3ca629b8	0.020283565
8	0x3ac5fac0	0.0015104637
9	0x3d89058c	0.06690511
10	0x3d9583ba	0.073005155
11	0xbb8c4f00	-0.0042818785
12	0xbd5e8cf7	-0.054333653
13	0x3d144fd4	0.036208943
14	0xbdce944b	-0.100868784
15	0x3dc14e30	0.09438741
16	0xbd3cd7f3	-0.046104383
17	0x3b970f50	0.0046099797
18	0x3c241d80	0.010016799
19	0xbdad68b4	-0.08467236
20	0x3d323c04	0.043514267
21	0xbdb1cd9d	-0.08681796
22	0xbce1c7e4	-0.027561136
23	0xbcf04c98	-0.029333398
24	0xbbb4d260	-0.0055182427
25	0xbc606ef8	-0.013698332
26	0xbd9af620	-0.07566476
27	0xbd9a0b60	-0.07521701
28	0xbd739cfe	-0.05947589
29	0xbd8443df	-0.06458258
30	0x3d026d90	0.03184277
31	0x3d877f12	0.066160336
32	0x3d9b3e68	0.075802624
33	0x3ccbf128	0.024895266
34	0xbc86040c	-0.016359352
35	0xbd2c8314	-0.042117193
36	0x3d125e64	0.03573455
37	0xbc93aeb4	-0.01802764
38	0x3ca59700	0.020213604
39	0x3d80d8be	0.0629134
40	0x3d026124	0.03183092
41	0x392bb200	0.00016374141
42	0x3b886770	0.0041627213
43	0x3c57c950	0.013170555
44	0x3daf28d4	0.08552709
45	0xbd6f6051	-0.058441464
46	0xbb5b3400	-0.0033447742
47	0xbcf6790c	-0.030087017
48	0x3d0c860c	0.034307525
49	0xbd13d0b0	-0.03608769
50	0x3d1a9044	0.03773524
51	0xbd80570a	-0.062666014
52	0x3dafff12	0.08593573
53	0x3ce72e78	0.0282204
54	0xbd2c81ee	-0.042116098
55	0xbce7c138	-0.028290376
56	0xbd87a30c	-0.066228956
57	0xbcc32c3c	-0.023824804
58	0xbd9cc974	-0.07655612
59	0x3d89ce8e	0.0672885
60	0xbc9d2d70	-0.019186705
61	0x3d129fd4	0.035796955
62	0xbc8c5f10	-0.017135173
63	0xbd8273b0	-0.06369722
64	0xbd2b6f68	-0.041854292
65	0xbce53cc0	-0.02798307
66	0xbd953b83	-0.072867416
67	0xbc847780	-0.016170263
68	0x3dce736e	0.1008061
69	0x3db80b6a	0.08986552
70	0xbdcfd52d	-0.10148082
71	0x3cc8a510	0.02449277
72	0x3d4032f0	0.046923578
73	0xbd509d4f	-0.05093127
74	0x3c5d0f20	0.013492376
75	0x3d0c3b14	0.03423603
76	0xbc7eeb28	-0.015558995
77	0xbdcb77ba	-0.099349454
78	0x3bacde50	0.005275525
79	0x3db28b22	0.08717944
80	0xbd7d9a7e	-0.061914913
81	0x3c7889b0	0.015169546
82	0xbd867663	-0.06565549
83	0xbdbbbab2	-0.09166469
84	0x3c973338	0.01845704
85	0xbd769de4	-0.06020917
86	0x3d8b7546	0.068094775
87	0x3dc35d98	0.09539336
88	0x3da1b234	0.07895318
89	0xbdbb9d7f	-0.09160899
90	0x3c734080	0.014846921
91	0xbdceb11d	-0.100923754
92	0x3d688c30	0.05677432
93	0xbd98ff2d	-0.07470546
94	0xbd2d3df1	-0.0422954
95	0xbd96c5c9	-0.07361943
96	0x3d157c94	0.03649576
97	0x3d972806	0.07380681
98	0x3d487758	0.04894194
99	0xbd48c486	-0.049015544
100	0xbcc006f0	-0.023440808
101	0xbcf9cad0	-0.030492216
102	0x3d4e91e8	0.050432116
103	0x3d03a9f0	0.032144487
104	0x3db0e31a	0.08637066
105	0x3da83f06	0.08215146
106	0x3d984536	0.07435076
107	0x3daad582	0.08341505
108	0xbdbf451c	-0.093393534
109	0x3dbafebc	0.09130618
110	0x3c874468	0.01651211
111	0xbda17c85	-0.07885078
112	0xbd9af3ff	-0.0756607
113	0xbd6bc449	-0.05756024
114	0x3da4770a	0.080305174
115	0xbc4a6928	-0.012354173
116	0xbdb7e1ff	-0.08978652
117	0xbc1bb860	-0.009504408
118	0xbd7c2e0a	-0.061567344
119	0xbd4b1709	-0.049582515
120	0x3daa4c5e	0.08315347
121	0x3db604e4	0.088876516
122	0xbdb61a3a	-0.08891721
123	0x3b812320	0.003940955
124	0xbd82e647	-0.06391578
125	0xbcb9aa84	-0.022664316
126	0xbccb6fe0	-0.02483362
127	0xbd1e7132	-0.03868217
128	0xbdc655fd	-0.0968437
129	0xbcde3f78	-0.027129874
130	0x3daa7840	0.08323717
131	0x3ca117ec	0.019664727
132	0x3da148b6	0.07875197
133	0xbbef7a70	-0.007308297
134	0xbdc74454	-0.097298294
135	0x3c017530	0.007901475
136	0xbd2bad48	-0.0419133
137	0x3dcc2c26	0.09969358
138	0xbbc5bc70	-0.0060344264
139	0xbd1c734a	-0.038195886
140	0xbd3d05d6	-0.046148144
141	0x3d7c3c5c	0.061581
142	0xbcda58c0	-0.026653647
143	0xbdb7df7c	-0.08978173
144	0xbc6b01b8	-0.0143436715
145	0xbcd7ff44	-0.026366837
146	0xbdbced97	-0.09225004
147	0xbcc04400	-0.023469925
148	0x3dba270e	0.0908948
149	0x3c8712d4	0.01648847
150	0xbda577a4	-0.0807946
151	0xbd8e67d8	-0.069534004
152	0xbdb48e17	-0.08816164
153	0xbdc9ce17	-0.09853762
154	0xbc830a94	-0.015996255
155	0xbdd0f861	-0.102036245
156	0x3bcfb6a0	0.0063389093
157	0x3d70f3cc	0.058826253
158	0xba28ec00	-0.0006443858
159	0xbcba3300	-0.022729397
160	0xbd0fd1b2	-0.03511209
161	0x3d73df70	0.05953926
162	0x3db37aa6	0.08763628
163	0x3bd85d80	0.006602943
164	0xbbc3ad50	-0.005971588
165	0x3dc688a4	0.09694031
166	0xbdc66a03	-0.09688189
167	0x3d92b0da	0.07162638
168	0xbcd4b15c	-0.025963478
169	0x3c30c8a0	0.01079002
170	0xbd1ab28c	-0.03776793
171	0x3db56f24	0.08859089
172	0x3dc9a9ec	0.09846863
173	0x3ccf0d88	0.025275007
174	0x3ba81510	0.005129464
175	0x3d6c9ad0	0.05776483
176	0x3d1fcffc	0.03901671
177	0x3c2d3a60	0.010573
178	0xbce2c318	-0.027680919
179	0xbd17302c	-0.036911175
180	0xbdb777e9	-0.08958418
181	0xbc30eb20	-0.010798246
182	0x3d854706	0.06507687
183	0xbcde36b8	-0.027125701
184	0x3bce0270	0.0062869117
185	0xbcb3dad4	-0.021954931
186	0xbda09831	-0.07841528
187	0x3d96593c	0.07341239
188	0x3cabf08c	0.020988725
189	0x3db8619a	0.09002991
190	0xbd3ebfde	-0.046569698
191	0xbd27004c	-0.040771767
192	0xbd21bbe2	-0.03948582
193	0x3dc0cef0	0.0941447
194	0x3ccdb828	0.025112227
195	0xbce27dac	-0.027647816
196	0x3db7b832	0.08970679
197	0x3c97a8d4	0.01851312
198	0xbcdaa7a4	-0.026691265
199	0x3db758e0	0.089524984
200	0xbb977c40	-0.004622966
201	0xbdbdb90c	-0.092638105
202	0xbb570860	-0.0032811388
203	0x3c489330	0.0122421235
204	0xbdc0e6bb	-0.09419008
205	0xbda7d93b	-0.0819573
206	0xbd4db8af	-0.050224956
207	0x3da70b3a	0.08156438
208	0xbdbe28e8	-0.09285146
209	0xbd8e796d	-0.06956754
210	0x3dcf3a80	0.1011858
211	0x3d88caac	0.066792816
212	0x3c57dd80	0.013175368
213	0xbd8379d6	-0.06419723
214	0x3cd1c7b0	0.025607914
215	0x3a8f7e40	0.001094766
216	0xbcc0b51c	-0.02352386
217	0x3abca700	0.0014393032
218	0x3dbd5ad2	0.09245838
219	0xbce7dbd0	-0.028303057
220	0x3d87d764	0.066328794
221	0xbd87b194	-0.06625667
222	0x3d1e1478	0.03859374
223	0x3cefe7d8	0.029285356
224	0x3d928c80	0.071557045
225	0x3cf36a40	0.02971375
226	0xbcd62f80	-0.026145697
227	0xbd68201a	-0.05667124
228	0xbd87b8ba	-0.06627031
229	0xbdae173b	-0.085005246
230	0xbcf449e8	-0.029820397
231	0x3cf0a760	0.029376686
232	0x3ba4cc60	0.005029246
233	0x3d3eb84c	0.046562478
234	0x3d177470	0.036976278
235	0xbdae555c	-0.08512375
236	0xbd90d262	-0.07071377
237	0x3bf95de0	0.0076100677
238	0xbd5dd3bc	-0.054157004
239	0xbdb5741d	-0.088600375
240	0xbcfc20e0	-0.030777395
241	0xbdb08980	-0.08619976
242	0xbc0db300	-0.008648634
243	0xbc3b3398	-0.011425875
244	0xbcc4bb24	-0.024015017
245	0xbbfd7950	-0.007735409
246	0x3d072d3c	0.033002123
247	0x3da920ea	0.08258231
248	0x3c2b1b40	0.010443509
249	0xbc98d9d0	-0.018658549
250	0x3d0646e4	0.03278245
251	0x3dafa554	0.08576456
252	0x3d362178	0.044465512
253	0xbdc88eec	-0.09792885
254	0xbc636420	-0.013878852
255	0x3cfa3678	0.03054355

smallwaves.bias f4 [8]
0	0xbd2ffe86	-0.04296734
1	0xbcab58cc	-0.020916365
2	0xbcafcd94	-0.021460332
3	0x3d04f0e4	0.032456294
4	0x3d7879d8	0.060663074
5	0x3d84d9c2	0.064868465
6	0xbcee9ffc	-0.02912902
7	0xbd6838a9	-0.05669466

embedding.weight f4 [32, 4]
0	0xbefcc025	-0.49365345
1	0xbdebd222	-0.11514689
2	0xbd814ae0	-0.063131094
3	0x3e9d1854	0.30682623
4	0xbed4015c	-0.41407287
5	0x3eade146	0.33960932
6	0x3e44b418	0.19209325
7	0x3f145f0a	0.5795752
8	0x3e93f1c2	0.28895384
9	0xbdd17bea	-0.10228713
10	0xbda68bdb	-0.08132144
11	0x3e43371a	0.19063988
12	0xbe0b089e	-0.13577506
13	0x3e73d11f	0.23810242
14	0xbec20ef0	-0.3790202
15	0xbe9def29	-0.30846527
16	0xbea66b6f	-0.3250384
17	0xbe15b716	-0.14620623
18	0x3d1282db	0.035769325
19	0xbf03ece0	-0.5153332
20	0xbe456fa4	-0.19280869
21	0xbdef6a22	-0.11690165
22	0x3e94b0e0	0.29041195
23	0xbeeb368a	-0.45940048
24	0xbce7dc7c	-0.028303377
25	0x3d105ee3	0.03524674
26	0xbf16c9de	-0.58901775
27	0xbf14953e	-0.58040226
28	0xbe05f8f1	-0.13083245
29	0xbea523a7	-0.32253763
30	0xbe3d9f6f	-0.1851785
31	0x3e0c44e0	0.13698149
32	0xbef47404	-0.47744763
33	0xbe406185	-0.18787201
34	0xbea2a690	-0.31767702
35	0x3e57cec1	0.21074964
36	0xbd8614f0	-0.06546962
37	0x3cbb953a	0.022898305
38	0xbe716d67	-0.2357689
39	0x3e91b979	0.28461817
40	0x3d861afe	0.06548117
41	0x3eb3e044	0.3513204
42	0x3d0761b4	0.03305216
43	0xbef262db	-0.47341046
44	0x3e78ec31	0.2430885
45	0x39a85261	0.00032104834
46	0xbe792096	-0.24328837
47	0xbeb39f4c	-0.3508247
48	0xbee0f763	-0.4393874
49	0x3eddb56c	0.43302476
50	0x3d821deb	0.06353363
51	0x3e0d72fd	0.13813396
52	0xbd306540	-0.04306531
53	0x3ec97458	0.39346576
54	0x3d66e294	0.056368425
55	0xbd004ceb	-0.031323355
56	0xbeaf9acf	-0.34297797
57	0xbf1ef78f	-0.62096494
58	0x3cb85d67	0.022505475
59	0x3dbfdf4a	0.09368761
60	0xbe2a2a42	-0.16617683
61	0x3dd2d68c	0.10294828
62	0xbef84dc8	-0.48496842
63	0x3edafb46	0.4276983
64	0xbe9914d0	-0.2989869
65	0xbea089fc	-0.31355274
66	0x3eead86d	0.45868245
67	0xbe418df6	-0.1890181
68	0xbee82069	-0.45337227
69	0x3ec77214	0.38954222
70	0x3f219a8e	0.63126457
71	0x3ea5b251	0.32362607
72	0x3dff84a3	0.1247647
73	0xbf0979ea	-0.5370165
74	0x3f0e596a	0.55605185
75	0x3df4db82	0.1195593
76	0x3ee55eee	0.44798988
77	0xbed74038	-0.42041183
78	0xbba1cbce	-0.0049376255
79	0x3e3f7c9e	0.18699881
80	0x3dcf4976	0.101214334
81	0x3e05525d	0.130197
82	0xbf24e431	-0.6441069
83	0x3ecbfc20	0.39840794
84	0xbf0dd779	-0.5540691
85	0xbef77190	-0.4832883
86	0x3f33fa3a	0.7030369
87	0xbef36ed7	-0.47545502
88	0x3e7e1e5c	0.24816269
89	0xbe2db685	-0.16964157
90	0xbe214b8d	-0.15751477
91	0xbe728608	-0.23683941
92	0xbf20a623	-0.62753505
93	0x3ed673b4	0.4188515
94	0xbd39763f	-0.045278784
95	0x3c4f6612	0.012658613
96	0xbebec114	-0.37256682
97	0x3ebc72d2	0.3680635
98	0xbe82b1d9	-0.25526312
99	0xbf013f96	-0.5048765
100	0x3ec3b35a	0.38222772
101	0xbebaebc7	-0.3650801
102	0x3f069a9a	0.52579653
103	0x3cf0ec7c	0.02940964
104	0xbed9e211	-0.42555287
105	0x3debe328	0.11517936
106	0x3e0f792a	0.14011064
107	0xbda47c73	-0.08031549
108	0xbd377646	-0.04479053
109	0xbed674a0	-0.41885853
110	0x3e9b2bfd	0.30306998
111	0x3ef1a38b	0.47195086
112	0x3ebe0b9f	0.3711824
113	0x3ee0293d	0.43781462
114	0xbc49ed9a	-0.012324715
115	0x3e5d8715	0.21633561
116	0xbed0146c	-0.4064058
117	0x3e331f3a	0.1749238
118	0x3dcc5ba6	0.09978418
119	0x3e574fce	0.21026537
120	0x3e731a53	0.2374051
121	0x3e8492b0	0.25893164
122	0x3dd99707	0.10624509
123	0x3f377266	0.71658933
124	0x3ed804ab	0.4219106
125	0xbdf406b0	-0.11915338
126	0xbf187cb2	-0.5956527
127	0x3e550eea	0.2080647

embedding.bias f4 [32]
0	0xbe9154ec	-0.28385103
1	0xbdf16852	-0.11787476
2	0xbe62946d	-0.22126932
3	0xbe9e8096	-0.30957478
4	0x3e630ff4	0.22174054
5	0xbeda274e	-0.42608112
6	0x3ea73947	0.32660887
7	0xbe3cc872	-0.18435839
8	0xbdd5a254	-0.10431352
9	0x3e15d32d	0.14631338
10	0xbe6aeace	-0.22941133
11	0x3ea40520	0.3203516
12	0xbe940e3f	-0.2891712
13	0xbd0f7ccf	-0.035031136
14	0x3e908098	0.2822311
15	0x3cabca1c	0.020970397
16	0x3e989e59	0.2980831
17	0x3e6357db	0.22201483
18	0x3d47167f	0.04860544
19	0x3cfc5296	0.030801099
20	0xbe95c140	-0.29249
21	0x3e243f92	0.16039875
22	0xbe288bb0	-0.16459537
23	0xbea2d104	-0.3180009
24	0x3e6def79	0.23235883
25	0xbeb35a98	-0.35030055
26	0xbe994595	-0.299359
27	0xbecc0a3a	-0.39851552
28	0xbe90fa38	-0.28315902
29	0x3dc522a7	0.0962575
30	0x3e0440d1	0.1291535
31	0xbe6bf6f6	-0.23043427

positional_encoding.pe f4 [1, 20, 32]
0	0x00000000	0.0
1	0x3f800000	1.0
2	0x00000000	0.0
3	0x3f800000	1.0
4	0x00000000	0.0
5	0x3f800000	1.0
6	0x00000000	0.0
7	0x3f800000	1.0
8	0x00000000	0.0
9	0x3f800000	1.0
10	0x00000000	0.0
11	0x3f800000	1.0
12	0x00000000	0.0
13	0x3f800000	1.0
14	0x00000000	0.0
15	0x3f800000	1.0
16	0x00000000	0.0
17	0x3f800000	1.0
18	0x00000000	0.0
19	0x3f800000	1.0
20	0x00000000	0.0
21	0x3f800000	1.0
22	0x00000000	0.0
23	0x3f800000	1.0
24	0x00000000	0.0
25	0x3f800000	1.0
26	0x00000000	0.0
27	0x3f800000	1.0
28	0x00000000	0.0
29	0x3f800000	1.0
30	0x00000000	0.0
31	0x3f800000	1.0
32	0x3f576aa4	0.84147096
33	0x3f0a5141	0.54030234
34	0x3f087dba	0.53316844
35	0x3f58940d	0.8460091
36	0x3e9f393e	0.3109836
37	0x3f734e6b	0.9504153
38	0x3e35233a	0.17689219
39	0x3f7bf683	0.9842302
40	0x3dcc7576	0.099833414
41	0x3f7eb898	0.9950042
42	0x3d6636ae	0.05620449
43	0x3f7f9868	0.9984193
44	0x3d01815b	0.031617504
45	0x3f7fdf3c	0.99950004
46	0x3c91ab42	0.017781857
47	0x3f7ff5a3	0.99984187
48	0x3c23d657	0.009999833
49	0x3f7ffcb9	0.99995
50	0x3bb8445a	0.0056233825
51	0x3f7ffef7	0.9999842
52	0x3b4f3e1c	0.0031622713
53	0x3f7fffac	0.999995
54	0x3ae91520	0.0017782785
55	0x3f7fffe6	0.99999845
56	0x3a83126d	0.0009999998
57	0x3f7ffff8	0.9999995
58	0x3a136a13	0.0005623411
59	0x3f7ffffd	0.9999998
60	0x39a5cb61	0.00031622782
61	0x3f7fffff	0.99999994
62	0x393a7753	0.00017782794
63	0x3f800000	1.0
64	0x3f68c7b7	0.9092974
65	0xbed51133	-0.41614684
66	0x3f66f20a	0.9021307
67	0x3edce8b2	0.43146282
68	0x3f17541b	0.5911271
69	0x3f4e7bec	0.8065784
70	0x3eb247f6	0.34820527
71	0x3f6ffaa6	0.93741834
72	0x3e4b6ff8	0.19866931
73	0x3f7ae5a5	0.9800666
74	0x3de5d986	0.1122313
75	0x3f7e61f3	0.9936821
76	0x3d8170c8	0.063203394
77	0x3f7f7cf9	0.9980007
78	0x3d11a55c	0.03555809
79	0x3f7fd68e	0.9993676
80	0x3ca3d43e	0.019998666
81	0x3f7ff2e5	0.9998
82	0x3c38439b	0.011246587
83	0x3f7ffbdb	0.99993676
84	0x3bcf3dd8	0.006324511
85	0x3f7ffeb1	0.99998003
86	0x3b691508	0.0035565514
87	0x3f7fff96	0.9999937
88	0x3b031268	0.0019999985
89	0x3f7fffdf	0.99999803
90	0x3a936a12	0.0011246821
91	0x3f7ffff5	0.99999934
92	0x3a25cb60	0.0006324556
93	0x3f7ffffd	0.9999998
94	0x39ba7753	0.00035565588
95	0x3f7fffff	0.99999994
96	0x3e1081c3	0.14112
97	0xbf7d7026	-0.9899925
98	0x3f7e45d7	0.9932532
99	0xbded7fab	-0.11596616
100	0x3f5009c2	0.8126489
101	0x3f152f58	0.58275366
102	0x3f022f6c	0.5085361
103	0x3f5c6d29	0.86104065
104	0x3e974e6c	0.2955202
105	0x3f7490ef	0.9553365
106	0x3e2beed7	0.16790329
107	0x3f7c5d9e	0.9858035
108	0x3dc1ffc0	0.094726086
109	0x3f7ed94f	0.99550337
110	0x3d5a694e	0.053323083
111	0x3f7fa2c3	0.9985773
112	0x3cf5b91f	0.0299955
113	0x3f7fe283	0.99955004
114	0x3c8a31c6	0.016869437
115	0x3f7ff6ad	0.9998577
116	0x3c1b6e0d	0.009486687
117	0x3f7ffd0d	0.999955
118	0x3baecfa8	0.005334813
119	0x3f7fff11	0.99998575
120	0x3b449b92	0.0029999954
121	0x3f7fffb5	0.9999955
122	0x3add1f17	0.0016870227
123	0x3f7fffe8	0.99999857
124	0x3a78b110	0.00094868336
125	0x3f7ffff9	0.9999996
126	0x3a0bd97e	0.0005334838
127	0x3f7ffffe	0.9999999
128	0xbf41bdcf	-0.7568025
129	0xbf275530	-0.6536436
130	0x3f4749ec	0.7784717
131	0xbf20af9e	-0.6276797
132	0x3f741dde	0.95358074
133	0x3e9a2eb1	0.30113748
134	0x3f271fbc	0.652828
135	0x3f41ebed	0.7575062
136	0x3ec761d7	0.38941833
137	0x3f6bcaa7	0.921061
138	0x3e6465c5	0.22304447
139	0x3f798d09	0.9748083
140	0x3e012e88	0.12615407
141	0x3f7df469	0.99201065
142	0x3d918dc8	0.07107121
143	0x3f7f5a46	0.9974712
144	0x3d23cbdb	0.039989334
145	0x3f7fcb94	0.9992001
146	0x3cb840a0	0.022491753
147	0x3f7fef6c	0.99974704
148	0x3c4f3cc9	0.01264877
149	0x3f7ffac2	0.99992
150	0x3be914a7	0.0071130577
151	0x3f7ffe58	0.9999747
152	0x3b831257	0.003999989
153	0x3f7fff7a	0.999992
154	0x3b136a0c	0.0022493629
155	0x3f7fffd6	0.9999975
156	0x3aa5cb5e	0.0012649109
157	0x3f7ffff3	0.9999992
158	0x3a3a7752	0.0007113117
159	0x3f7ffffc	0.99999976
160	0xbf757c10	-0.9589243
161	0x3e913c2c	0.2836622
162	0x3ea5dad8	0.32393527
163	0xbf723240	-0.94607925
164	0x3f7ffc7f	0.99994653
165	0xbc2972e9	-0.010342338
166	0x3f46caab	0.77652997
167	0x3f214cf1	0.6300803
168	0x3ef57743	0.47942552
169	0x3f60a940	0.87758255
170	0x3e8e11ed	0.2774805
171	0x3f75f27c	0.96073127
172	0x3e213c1d	0.15745588
173	0x3f7cce81	0.987526
174	0x3db5db21	0.08879686
175	0x3f7efd1e	0.99604976
176	0x3d4cb6f4	0.049979165
177	0x3f7fae19	0.99875027
178	0x3ce64dfb	0.028113356
179	0x3f7fe619	0.99960476
180	0x3c81857e	0.015810724
181	0x3f7ff7cf	0.999875
182	0x3c11acbb	0.00889128
183	0x3f7ffd69	0.9999605
184	0x3ba3d6dd	0.004999979
185	0x3f7fff2e	0.9999875
186	0x3b384489	0.0028117022
187	0x3f7fffbe	0.99999607
188	0x3acf3e33	0.0015811383
189	0x3f7fffeb	0.99999875
190	0x3a691526	0.0008891396
191	0x3f7ffff9	0.9999996
192	0xbe8f0f8c	-0.2794155
193	0x3f75cdb8	0.96017027
194	0xbe6be576	-0.23036751
195	0xbf791d53	-0.9731037
196	0x3f72784e	0.9471482
197	0xbea43f6d	-0.3207964
198	0x3f603088	0.8757405
199	0x3ef72f35	0.48278204
200	0x3f108c68	0.5646424
201	0x3f534932	0.8253356
202	0x3ea97dfc	0.3310393
203	0x3f7190e2	0.943617
204	0x3e41206e	0.18860027
205	0x3f7b67e3	0.98205394
206	0x3dda19c2	0.10649444
207	0x3f7e8b51	0.9943133
208	0x3d759cd1	0.059964005
209	0x3f7f8a12	0.99820054
210	0x3d0a2cbe	0.033734076
211	0x3f7fdab3	0.99943084
212	0x3c9b6c43	0.018972522
213	0x3f7ff434	0.99982
214	0x3c2ecf05	0.0106694745
215	0x3f7ffc45	0.9999431
216	0x3bc49b58	0.0059999637
217	0x3f7ffed2	0.999982
218	0x3b5d1f03	0.0033740408
219	0x3f7fffa1	0.99999434
220	0x3af8b108	0.0018973658
221	0x3f7fffe2	0.9999982
222	0x3a8bd97c	0.0010669674
223	0x3f7ffff7	0.99999946
224	0x3f283046	0.6569866
225	0x3f40ffbd	0.75390226
226	0xbf36b670	-0.7137213
227	0xbf334f5e	-0.7004298
228	0x3f4ce86e	0.8004216
229	0xbf1974bc	-0.5994375
230	0x3f728444	0.9473307
231	0x3ea3f8ba	0.320257
232	0x3f24eb72	0.6442176
233	0x3f43ccb3	0.7648422
234	0x3ec460de	0.38355154
235	0x3f6c6bc6	0.9235195
236	0x3e60d350	0.2195561
237	0x3f79c0ea	0.9755999
238	0x3dfe46ba	0.12415834
239	0x3f7e04e9	0.9922624
240	0x3d8f3e32	0.06994285
241	0x3f7f5f81	0.997551
242	0x3d21315e	0.03935372
243	0x3f7fcd3b	0.9992253
244	0x3cb552a2	0.022134129
245	0x3f7feff2	0.999755
246	0x3c4bf12a	0.012447635
247	0x3f7ffaec	0.9999225
248	0x3be55fc5	0.006999942
249	0x3f7ffe65	0.9999755
250	0x3b80fcbc	0.0039363783
251	0x3f7fff7e	0.99999225
252	0x3b1111ed	0.0022135929
253	0x3f7fffd7	0.99999756
254	0x3aa32866	0.0012447953
255	0x3f7ffff3	0.9999992

transformer.encoder.layers.0.self_attn.in_proj_weight f4 [96, 32]
0	0x3dcfe603	0.10151293
1	0xbea38d2b	-0.3194364
2	0xbe4ea227	-0.20179044
3	0xbd6acb49	-0.057322774
4	0x3cce6e78	0.02519916
5	0x3cfb1172	0.030647967
6	0xbe2e2120	-0.17004824
7	0xbe6a6ee9	-0.22893871
8	0xbe728754	-0.23684436
9	0xbe4e6197	-0.20154415
10	0x3d50450b	0.050847095
11	0x3e3347ba	0.1750783
12	0xbe626643	-0.22109322
13	0xba9a1bc1	-0.0011757539
14	0x3d364307	0.044497516
15	0x3e022fca	0.12713543
16	0x3cee75da	0.02910893
17	0xbe7c89a0	-0.24661875
18	0xbe1a943c	-0.1509561
19	0x3e282ad8	0.16422594
20	0x3c5d258e	0.013497723
21	0x3e39eed1	0.18157507
22	0x3d9dd6b6	0.077069685
23	0xbe0cc34b	-0.13746373
24	0x3c3be864	0.01146898
25	0x3d129f23	0.035796296
26	0x3c39f7bb	0.011350567
27	0x3cc3d2bf	0.023904203
28	0x3d763771	0.060111467
29	0xbe84335c	-0.25820434
30	0xbd656b69	-0.056010637
31	0x3d08d7a0	0.03340876
32	0x3dfb2643	0.12263157
33	0x3d855109	0.06509597
34	0xbd1f0f4a	-0.03883294
35	0x3e8c7053	0.27429447
36	0xbd46bff5	-0.04852291
37	0x3d8b36da	0.067975715
38	0xbd934bb0	-0.071921706
39	0xbd58a293	-0.052889418
40	0xbd1c5039	-0.038162444
41	0xbd892d70	-0.0669812
42	0x3e04e13e	0.12976548
43	0xbe8bc5fa	-0.27299482
44	0xba9f0c78	-0.0012134453
45	0x3da67d3f	0.081293575
46	0xbe48a72c	-0.19595021
47	0xbe3f7779	-0.18697919
48	0xbd8d6fff	-0.06906127
49	0x3dcd90e1	0.10037399
50	0x3dda4869	0.106583424
51	0xbd6251e8	-0.055253893
52	0x3d39020f	0.04516798
53	0x3e3e6445	0.18592937
54	0x3cd05bfa	0.025434483
55	0xbc3eb998	-0.011640929
56	0x3dde2038	0.10845989
57	0xbe70be5f	-0.23510121
58	0x3ea6813d	0.32520476
59	0x3dec5818	0.1154024
60	0x3dce7cc8	0.10082394
61	0xbe63ca70	-0.22245193
62	0xbda31dad	-0.079646446
63	0xbea85503	-0.3287736
64	0xbd9e0477	-0.07715695
65	0xbdc60571	-0.096690066
66	0xbd8696f9	-0.065717645
67	0xbd6ce110	-0.057831824
68	0xbd5f8988	-0.05457452
69	0x3dfc963d	0.12333343
70	0x3e18ca05	0.14920814
71	0xbe3d0119	-0.1845745
72	0x3e3bc041	0.18335058
73	0x3e034982	0.1282101
74	0xbdbb9765	-0.091597356
75	0x3e223866	0.15841827
76	0xbe70041a	-0.23439065
77	0x3e475a4b	0.19468038
78	0xbd9e1139	-0.07718129
79	0x3e75981a	0.23983803
80	0xbdb22986	-0.08699326
81	0xbe1f12aa	-0.15534464
82	0x3e7fadde	0.24968669
83	0x3eb1d18c	0.34730184
84	0x3da84566	0.08216362
85	0x3e52582d	0.20541449
86	0xbbd7beab	-0.0065840087
87	0x3e05ca3a	0.13065425
88	0x3de8aedf	0.11361479
89	0x3e153049	0.145692
90	0xbe7c9254	-0.24665195
91	0x3d3139c0	0.043267965
92	0x3e876d54	0.26450598
93	0x3e2052e5	0.15656622
94	0x3ea5af06	0.32360095
95	0xbd281993	-0.041040014
96	0xbe28cc8e	-0.16484281
97	0x3c76ba98	0.015059136
98	0xbd338cba	-0.04383538
99	0x3e806fc7	0.2508528
100	0xbe08776f	-0.1332681
101	0xbe07ca9d	-0.13260885
102	0x3da89aa0	0.082326174
103	0x3e827059	0.2547634
104	0x3da32a18	0.07967013
105	0x3dc367b5	0.09541265
106	0xbdf2ac60	-0.11849284
107	0x3c07251f	0.008248596
108	0xbe7c7c53	-0.24656801
109	0xbe6ec89f	-0.23318718
110	0xbe0647b2	-0.13113287
111	0x3dc392cc	0.09549484
112	0xbe1f603c	-0.15564054
113	0x3d536715	0.05161198
114	0xbd46ac51	-0.048504177
115	0xbdca4b33	-0.09877624
116	0xbe0a66cc	-0.13515776
117	0x3e255984	0.16147429
118	0xbe30912e	-0.17242882
119	0xbaae2a9a	-0.0013287843
120	0xbc3030be	-0.010753809
121	0x3e1c3ba2	0.15257123
122	0xbe02179c	-0.12704319
123	0x3d34af51	0.044112507
124	0xbd11d080	-0.03559923
125	0x3ca75948	0.020428315
126	0x3db06208	0.08612448
127	0xbe79f300	-0.24409103
128	0xbe0dc23b	-0.13843624
129	0x3de68dd9	0.11257524
130	0xbd2e73ad	-0.042590786
131	0xbe109459	-0.1411909
132	0xbe42daf9	-0.19028844
133	0xbde0f5ad	-0.10984359
134	0xbe6cdb91	-0.23130633
135	0xbddea536	-0.10871355
136	0x3ded8cec	0.11599144
137	0xbe224fc8	-0.15850747
138	0xbd0ea264	-0.034822837
139	0xbe5a0861	-0.21292259
140	0x3e4ac535	0.19801791
141	0x3d9409a1	0.07228399
142	0x3e0a8bd7	0.13529907
143	0xbd957a02	-0.07298662
144	0xbdae63a0	-0.08515096
145	0xbb45ab8a	-0.003016206
146	0xbda7d255	-0.081944145
147	0xbdc55bbd	-0.09636638
148	0x3de3feb6	0.11132567
149	0xbe19675b	-0.14980833
150	0xbb9dd596	-0.004816721
151	0xbd5ddb57	-0.054164257
152	0xbe5265fb	-0.20546715
153	0x3e106392	0.14100483
154	0xbe7d9972	-0.24765566
155	0xbdac4720	-0.084120035
156	0xbdbe0d41	-0.09279872
157	0x3c868eaf	0.016425459
158	0xbd52b481	-0.051441673
159	0xbe2e788f	-0.17038177
160	0xbe267b35	-0.16257937
161	0xbdabd1f4	-0.08389655
162	0xbdf046cf	-0.11732256
163	0x3e6a1b3f	0.22861956
164	0x3e549006	0.20758066
165	0x3d93fef9	0.072263665
166	0x3e0ef528	0.13960707
167	0xbdd07618	-0.101787746
168	0x3d8c4f19	0.06851024
169	0xbd841e2c	-0.06451067
170	0x3e2b3ca0	0.16722345
171	0xbc4bf5a5	-0.012448703
172	0x3e3f9268	0.18708193
173	0xbe064757	-0.13113151
174	0xbe070918	-0.13187063
175	0x3e6600d9	0.22461261
176	0x3db59531	0.08866347
177	0x3e1059b2	0.14096716
178	0x3d9e4bac	0.07729277
179	0xbdd6ae4e	-0.10482465
180	0xbe2810a2	-0.16412595
181	0xbdb9430f	-0.090459935
182	0xbde734f0	-0.11289394
183	0xbda94d1b	-0.0826666
184	0x3e1049fd	0.14090724
185	0xbe18b1d1	-0.14911582
186	0x3e5d63d0	0.21620107
187	0x3e361865	0.17782743
188	0xbdb83132	-0.08993758
189	0xbe1f96c5	-0.15584858
190	0x3c87a76b	0.016559323
191	0x3e22cca0	0.1589837
192	0xbd57ce7c	-0.052687153
193	0x3e86c371	0.26320985
194	0x3d44cec2	0.048048742
195	0xbe26ed0b	-0.16301362
196	0xba06de81	-0.000514485
197	0xbe5e6278	-0.2171725
198	0xbe183723	-0.14864783
199	0xbd8f04a5	-0.06983308
200	0x3deed590	0.116618276
201	0xbc136b3e	-0.0089977365
202	0xbe0fde04	-0.14049536
203	0x3d90c2e3	0.07068422
204	0x3da44bd0	0.080222726
205	0x3d928b37	0.071554594
206	0x3d9479f6	0.07249825
207	0x3d663d74	0.05621095
208	0x3e534517	0.20631824
209	0x3df1c725	0.11805562
210	0xbdecfb24	-0.11571339
211	0xbe3f5a13	-0.18686704
212	0x3ce97318	0.028497264
213	0x3e5425d2	0.20717552
214	0xbeb2dce8	-0.34934163
215	0x3e198b03	0.14994435
216	0xbc24c0e0	-0.010055751
217	0xbdeecbd1	-0.11659969
218	0x3e5ff30e	0.21870062
219	0x3e70f46a	0.23530737
220	0x3c5b0bf6	0.013369551
221	0x3c1ce2b5	0.009575536
222	0x3e85d026	0.26135367
223	0xbdab2698	-0.083569705
224	0xbe24ad8b	-0.16081826
225	0x3e0d6c05	0.13810737
226	0xbe8d45c7	-0.27592298
227	0xbd36bda6	-0.044614457
228	0x3e6f341e	0.23359725
229	0x3e96828c	0.29396474
230	0x39ece958	0.00045187282
231	0xbe6bd746	-0.23031339
232	0x3cc74562	0.024325076
233	0xbe71f74c	-0.23629493
234	0xbda96445	-0.08271078
235	0x3d4d1d91	0.050077025
236	0xbd9d33a3	-0.076758645
237	0xbd4d98a0	-0.050194383
238	0xbe17934b	-0.14802282
239	0xbe04f0ba	-0.12982455
240	0xbdace514	-0.08442131
241	0xbe1735e8	-0.14766657
242	0x3d891a0d	0.06694422
243	0xbbf22d28	-0.007390637
244	0x3e2ad38e	0.16682264
245	0xbe3c8c24	-0.18412834
246	0x3e3d907c	0.18512148
247	0xbe215a13	-0.15757017
248	0xbe13e7fe	-0.14443967
249	0xbe5fbb49	-0.21848787
250	0x3d7221a9	0.059114132
251	0xbe0ea074	-0.13928396
252	0xbdf0ab84	-0.11751464
253	0xbe16b2fa	-0.14716712
254	0x3b3de484	0.0028975317
255	0x3e02716b	0.12738578

transformer.encoder.layers.0.self_attn.in_proj_bias f4 [96]
0	0xbd396f7f	-0.045272347
1	0xbda7cc6f	-0.081932895
2	0x3d9fe191	0.07806695
3	0xbd19e826	-0.03757491
4	0x3c0de6a6	0.008660948
5	0x3c956072	0.018234465
6	0xbc3ea273	-0.011635411
7	0xbc0bce07	-0.008533007
8	0xbd6ac228	-0.057314068
9	0xbda77434	-0.08176461
10	0x3da141fa	0.07873912
11	0x3cc9efc9	0.024650471
12	0x3d3661cf	0.04452687
13	0x3d971d05	0.07378582
14	0xbe2f81ae	-0.17139313
15	0xbd70c8ce	-0.058785252
16	0xbe129cc0	-0.14317608
17	0x3dbda992	0.092608586
18	0x3dc87204	0.09787372
19	0xbde18dd9	-0.110133834
20	0xbdc3cab3	-0.09560146
21	0xbce2f841	-0.027706267
22	0xbdacab6e	-0.08431135
23	0xbc0aef66	-0.008479929
24	0xbd83839f	-0.06421589
25	0xbddbe407	-0.10736852
26	0xbd6604bd	-0.056156863
27	0xbd9f877b	-0.07789513
28	0x3d647e5c	0.05578457
29	0xbdb443f3	-0.08802023
30	0x3db9244a	0.09040125
31	0x3daef03e	0.08541916
32	0x3bfa8cc2	0.007646174
33	0x3c1c182a	0.009527246
34	0xbc664623	-0.014054808
35	0x3b9d2f59	0.004796904
36	0x3bf5969b	0.00749476
37	0x3b8d4b53	0.004311958
38	0xbc855117	-0.016274018
39	0x3c87700a	0.016532917
40	0xb9d02abc	-0.0003970469
41	0xba6c5a7c	-0.0009016169
42	0xbad80f73	-0.0016484096
43	0xbcbe7036	-0.023246866
44	0xbaed81ba	-0.0018120327
45	0xbcb22b61	-0.0217492
46	0xbb9e0c03	-0.0048232093
47	0xbbe90d59	-0.007112187
48	0x3cd67a3e	0.026181336
49	0xbcb713cb	-0.022348305
50	0xbcaade81	-0.020858051
51	0x3c9f7e75	0.01946948
52	0x3cbad76b	0.022807797
53	0x3cb3af16	0.021934073
54	0x3c635c3c	0.013876971
55	0x3bb96dd6	0.0056588454
56	0x3c31b6a4	0.010846768
57	0x3d0aff33	0.033934783
58	0x3c3df904	0.0115950145
59	0x3bd1d80c	0.0064039286
60	0xbc7880a0	-0.015167385
61	0x3c22958e	0.009923352
62	0xbd15217f	-0.036408897
63	0xbc6ad4c0	-0.01433295
64	0xbbb3024a	-0.0054629194
65	0xbc5353f1	-0.012898431
66	0xbc1c4c19	-0.0095396275
67	0x3cc08a64	0.02350349
68	0x3bfee27c	0.007778464
69	0x3ccdbb40	0.025113702
70	0xba135bfb	-0.0005621311
71	0xbcabd93b	-0.020977607
72	0xbc856dfe	-0.0162878
73	0xbb00c56b	-0.001964892
74	0x3c97476a	0.01846667
75	0x3b99b01e	0.0046901843
76	0xbd17cafa	-0.037058808
77	0x3c2ad502	0.010426762
78	0xbbd6cf39	-0.0065554646
79	0x3c870f91	0.016486915
80	0xb9c8aabd	-0.00038274183
81	0xbd258338	-0.040408343
82	0x3c65c76a	0.014024595
83	0x3c58f2a3	0.013241443
84	0x3a83672c	0.0010025254
85	0x3be211a1	0.006899074
86	0x3c9a252c	0.018816553
87	0xbc80d45f	-0.015726266
88	0x3c848bc2	0.016179923
89	0x3b9c17b7	0.004763569
90	0x3bfb9ab0	0.0076783523
91	0x3a010965	0.00049223594
92	0x3c8608e8	0.016361669
93	0xbce5ea69	-0.028065877
94	0xbc65c25b	-0.014023389
95	0xbb4ac33c	-0.0030939123
